save/DON.pth (torch, 254400 bytes, 10 tensors)

model.0.weight f4 [128, 100]
000000 a0 41 4d bd 00 32 f1 3b 37 1c 6f be 64 94 5b 3e
       -0.050111413 0.007360697 -0.23350607 0.21443325
000010 30 5f 5e 3e 52 83 13 3e a8 cf 2f bd 8d 21 1f 3e
       0.21715999 0.14405563 -0.042922646 0.15540142
000020 23 5b 09 be 99 c4 4b 3e b9 00 41 be 72 ae 56 be
       -0.13413672 0.19899215 -0.18847932 -0.20964983
000030 b0 1d 3d bd 70 da 64 3e 63 9a 13 be e3 55 1b be
       -0.04617089 0.22348952 -0.14414363 -0.15169482
000040 87 18 42 3e fc c3 02 bd 02 55 93 bd 0e 3b a6 3c
       0.18954669 -0.031925187 -0.07193948 0.020291831
000050 ec 71 23 3e bb 68 13 be 33 9e 04 3e a0 3c 16 bd
       0.15961426 -0.1439542 0.12950973 -0.03667891
000060 c6 81 12 be f3 2a 9d 3d ff ad 29 be 2e df 1d bd
       -0.14307317 0.076742075 -0.1657028 -0.03854292
000070 7c 34 75 3e 3a 6a c1 3d fd 7e 00 be 8d 03 c8 3d
       0.23945802 0.09444089 -0.12548442 0.09766302
000080 e8 da f6 3d 64 2f 56 3e a5 6a 63 be 55 86 56 be
       0.12053472 0.20916516 -0.2220865 -0.20949681
000090 f4 2b dc 3d cd 41 5f 3e 8d 1c 8a bd 99 c0 0c be
       0.10750571 0.21802445 -0.06743727 -0.13745345
0000a0 19 91 0a 3e 44 a2 89 3d 19 65 13 be e2 a6 cb 3d
       0.13531913 0.06720403 -0.14394034 0.0994394
0000b0 2f 7a 66 3e 75 60 5d be 44 6d a5 bd a3 0e 5c be
       0.22507547 -0.21618827 -0.080774814 -0.21489958
0000c0 71 60 cb 3d ba cf 00 3d e4 71 75 be 52 5a 32 3e
       0.09930504 0.031448103 -0.23969227 0.17417267
0000d0 a6 f6 1c 3c 54 28 b8 3a ee 93 40 be 3f b8 df bd
       0.00958029 0.0014050105 -0.1880643 -0.10923814
0000e0 d3 7b 90 3c f8 d8 34 3e dc 1d 2f 3e 98 91 1c be
       0.017637169 0.17660892 0.17101234 -0.15289915
0000f0 a1 ec 8b 3d 29 51 b8 3d b7 5f dc bc 37 20 36 3b
       0.06832243 0.08999855 -0.02690111 0.0027790198
000100 21 c5 1d 3e aa ca 4b 3d ca 69 e5 3c 31 3e 1a bd
       0.1540723 0.049753822 0.028004546 -0.037656967
000110 fc e7 c5 bd 70 2e be 3d 66 80 1f bc 39 07 0b bd
       -0.09663388 0.09286201 -0.009735202 -0.033942435
000120 ec f2 d2 3d 88 77 d6 3d ac 8b 4e 3d c7 5e 1f be
       0.1030024 0.104720175 0.05042617 -0.15563498
000130 bc 55 86 3d 5b 87 80 3d d4 a0 e4 3d bb 62 42 3e
       0.06559321 0.06275817 0.11163488 0.18982975
000140 7e b0 64 3e f2 33 13 bb eb 9b 72 be b1 15 5c 3e
       0.22332951 -0.0022461382 -0.2369229 0.2149265
000150 d0 f5 f1 3d f5 60 b8 bd 92 6a 71 3e 3c d3 00 3e
       0.11814463 -0.09002868 0.2357581 0.1258058
000160 b0 15 e9 bd 00 39 76 bd d0 ab 84 3d c6 fd 45 be
       -0.1138109 -0.060112953 0.06478083 -0.19335088
000170 9e ad 22 3e f5 33 a7 3d 91 10 8c bd 80 f4 13 3d
       0.15886542 0.08164207 -0.06839097 0.036121845
000180 93 fb 47 3e f3 25 ff bd 82 b0 8d 3d ad 0f 11 3e
       0.19529562 -0.1245841 0.06918432 0.14166136
000190 70 93 8e 3d f8 51 37 3e 15 e3 ed 3d b9 d4 78 bd
       0.06961715 0.17902362 0.11615578 -0.060749743
0001a0 52 4f 6b be 8b 62 ea 3c 5a 29 fa 3d c8 16 ca 3d
       -0.22979477 0.028611442 0.122149184 0.098676264
0001b0 3c 7d 1a 3e 50 1c 47 3d c6 6f 4a be 70 38 0f 3e
       0.15086836 0.048610985 -0.197692 0.13986373
0001c0 d7 39 22 be 41 20 48 bd 04 2c f9 bc 61 64 55 bd
       -0.15842377 -0.048858885 -0.030416496 -0.052097682
0001d0 04 62 62 bc a8 be 88 bd 7f 68 50 be f9 26 29 3d
       -0.013817314 -0.0667699 -0.20352362 0.041296933
0001e0 e2 44 49 be ca 5b 95 3d 47 47 3e be 80 58 98 3d
       -0.19655183 0.07292898 -0.18581878 0.07438755
0001f0 19 16 ad 3d c7 88 2b 3e 09 60 25 bd 1d 30 61 3e
       0.084514804 0.16751395 -0.04037479 0.2199101
000200 e2 0c 97 3b 80 86 2a 3e ab 4c f2 bc fb 28 50 be
       0.00460969 0.1665287 -0.029577574 -0.20328133
000210 a2 24 8f bd 3e 3c 5b bd 5e b1 48 be 73 a9 23 3d
       -0.06989409 -0.05352425 -0.1959891 0.03995652
000220 2c c9 27 3e a5 d8 81 ba 11 5e cf 3d bc 62 38 3e
       0.16385335 -0.0009906484 0.101253636 0.18006414
000230 c4 dc 49 3e c2 f7 05 be 07 f0 33 3e c2 15 1b 3d
       0.19713122 -0.13082793 0.17572032 0.037862547
000240 a8 6f 00 be 1d 90 e0 3d 8a 7c 6d 3e 44 5a 6a be
       -0.12542593 0.109649874 0.23192039 -0.22885996
000250 ec fc 41 3e 1b 20 5f 3e 6f b0 bb 3c 4a ce 52 3e
       0.18944138 0.21789591 0.022911279 0.20586506
000260 5e b7 81 be 62 d2 40 be e8 a6 91 bd 4d e3 4f be
       -0.2533521 -0.18830255 -0.07111913 -0.20301552
000270 2f 7f 46 3c 1a cf 16 be 53 d1 b1 3d 2a 8a fd 3c
       0.012115284 -0.1472744 0.086825036 0.03094967
000280 c8 27 35 3e 84 6e 3e be 61 25 10 3d a7 0b 1f bd
       0.17690957 -0.18596846 0.035191897 -0.038829472
000290 0a be d5 3d f6 4d 30 3e e8 6b fd bd e3 66 29 3c
       0.10436638 0.1721724 -0.12374097 0.0103394715
0002a0 64 0f 41 3d 4a ee d3 bd 8e 20 4f 3e a5 4e 44 3e
       0.04713382 -0.103481844 0.20227262 0.19170626
0002b0 19 f0 7e be 1e b0 86 bd 7b 22 4b bd 5c 47 2d be
       -0.24896277 -0.065765604 -0.04959343 -0.16921753
0002c0 27 e0 ea bc e8 b9 16 3e 2e 9e 22 3e 80 13 51 3e
       -0.028671337 0.14719355 0.15880653 0.20417595
0002d0 e8 8c 97 bd 6e 82 5d be e2 db 9e 3a 17 23 52 3e
       -0.073999226 -0.21631786 0.0012119974 0.20521198
0002e0 52 f6 36 be 15 ce 95 bd 1a 70 fb bd 9e d2 43 3d
       -0.17867401 -0.07314698 -0.12277241 0.047808282
0002f0 a6 f2 a9 3d f6 ba 42 3e e0 8f 87 3d 05 cb 39 3e
       0.08298235 0.19016632 0.06619239 0.18143852
000300 9b bb 44 3e c1 f1 5b bd f3 de 96 3d bf 0e 30 3e
       0.19212191 -0.05369735 0.07366743 0.17193125
000310 22 2a 33 3e 54 17 78 bd 8b cc 0e be b5 52 7f bd
       0.17496541 -0.060569122 -0.13945214 -0.062334735
000320 9f 0c 2f 3e b3 8d 03 be 71 c9 03 be 2c 09 4c 3e
       0.17094658 -0.12847023 -0.12869813 0.19925374
000330 9a ce 58 be 22 cb 4f be ed 89 dc 3d f9 63 d4 3c
       -0.21172562 -0.20292333 0.10768495 0.025926577
000340 45 0d 1c 3e b2 f4 1a be cf 15 42 bd 94 63 49 3e
       0.15239437 -0.15132406 -0.04738408 0.19666892
000350 e7 82 2d be db 4c 55 be 32 cd 34 3d 1f 1c 21 bd
       -0.16944467 -0.208301 0.044141002 -0.03933346
000360 e2 12 5b be 0f a3 88 3d 34 76 55 3e 39 d7 2f 3e
       -0.21393922 0.06671726 0.20845872 0.17171945
000370 52 83 10 3d e0 69 44 3e fd 73 6f be 65 cb 67 3c
       0.035281487 0.19181013 -0.2338409 0.014147614
000380 f5 ae 48 bd 4e e2 53 3e 83 3a 56 be 9b 78 50 3e
       -0.048994977 0.20691797 -0.20920758 0.20358507
000390 32 cd 1c bc 79 05 13 be 0b 39 ed bc ac 5a 15 be
       -0.009570407 -0.14357556 -0.028957864 -0.1458537
0003a0 91 8a 3f 3e b4 c2 4c be 71 4b 0d 3e b9 69 fc 3d
       0.18705203 -0.19996148 0.1379831 0.123248525
0003b0 99 9d 93 bd de 56 68 3d 61 7d dc 3c ec dd 1b bd
       -0.07207794 0.056723468 0.026915254 -0.038053438
0003c0 26 21 65 be 39 6f 3b 3d 57 51 0a 3e 5d 14 76 3e
       -0.22375926 0.045760367 0.13507591 0.24031205
0003d0 ed 41 69 3e 09 5b 69 be d2 95 5e 3e 3c 17 3b be
       0.22779055 -0.22788633 0.2173684 -0.18270582
0003e0 ca 43 45 bd 55 66 1a 3e ad 87 51 bd 6b e2 40 be
       -0.04816035 0.15078099 -0.05115478 -0.18836372
0003f0 d5 c9 d6 bd 1e 2d 3f bd 94 fc 79 be 7d 60 c5 3d
       -0.10487715 -0.046673886 -0.24412757 0.09637544

model.0.bias f4 [128]
000000 7d 6f 5f ba e6 0d e1 bc 78 23 1b bc 97 a9 95 3a
       -0.0008523388 -0.027472448 -0.009468906 0.001141834
000010 1c 33 e8 3a 9c eb c6 3b 29 ba ca ba a4 71 11 3b
       0.0017715427 0.0060705673 -0.0015466857 0.002219298
000020 18 4f b4 bc 24 8e 58 ba 52 36 65 bb 49 82 9c bb
       -0.022010371 -0.00082609267 -0.0034975004 -0.0047762734
000030 1b 9e 3d 3b 3f 0e 5a bb 15 d1 9e bc 96 3b 90 bc
       0.002893335 -0.0033272651 -0.019386807 -0.017606538
000040 dd 98 20 3d 9f 3c 95 3b f3 b5 83 39 3a ec 92 3b
       0.03920828 0.0045543457 0.0002512183 0.004483727
000050 a7 f7 f1 3b fb f1 27 bc cc 4b 49 bc 29 2f 9b 3c
       0.007384259 -0.010250564 -0.012286138 0.018943386
000060 66 ae 7c b9 2b e3 b7 3a 81 ba 74 3a 63 0c 73 3c
       -0.00024097561 0.0014029493 0.00093356526 0.014834496
000070 a2 77 18 bd c1 49 93 bb 0e 74 d5 bc ea 31 1b 3c
       -0.037223466 -0.004494876 -0.026056316 0.00947235
000080 c2 47 6b bc ea fd ef 3c 20 46 5a bc 7e e4 ab bb
       -0.01436037 0.02929588 -0.013322383 -0.0052457443
000090 81 a9 61 3b d3 c1 64 bb fe a4 13 3c 88 25 5f 3c
       0.0034433308 -0.0034905567 0.009011505 0.013619788
0000a0 ce 43 fd 3b 98 dd 05 3b dc f6 13 bc 9d 7c d6 3b
       0.00772903 0.002042627 -0.009031024 0.006545617
0000b0 26 93 87 b5 bf 84 df 3b 4d bb 86 3b 18 2b 62 3c
       -1.010111e-06 0.0068212445 0.0041116835 0.01380422
0000c0 38 b0 12 3a 48 7e d7 3b 66 58 9b 3b 03 79 ff 3b
       0.00055957166 0.006576333 0.0047407625 0.007796408
0000d0 f2 17 6f bd 69 aa 18 bc 68 b9 f1 b8 59 e5 bd 3b
       -0.058372445 -0.009317973 -0.0001152631 0.0057951626
0000e0 38 00 2e bc fc 34 42 bb b0 9e 05 bc b8 48 b8 bc
       -0.010620169 -0.0029633632 -0.00815551 -0.022495613
0000f0 ba f2 00 bc 78 6f 12 3d 2d ef 0a 3c d0 86 ff 3b
       -0.0078703705 0.035750836 0.0084798755 0.0077980533
000100 46 d0 5d 3c f5 4a 06 b8 9a dd a2 3c a7 81 98 3b
       0.013538426 -3.20179e-05 0.019881058 0.0046541276
000110 23 b6 63 3c 22 f7 1a 3d 94 30 d7 bc fd b6 c1 3c
       0.013898405 0.03783334 -0.026268281 0.023646826
000120 8e 2d 13 3d 63 a6 03 bb b2 8c 0e 3a 65 78 e4 3b
       0.035932116 -0.0020088188 0.00054378354 0.00697236
000130 58 da d6 ba dd aa 70 3c d1 07 01 bc d0 38 20 bc
       -0.0016391976 0.0146891745 -0.007875399 -0.00977917
000140 f2 a7 79 3a 7f 56 10 3d e7 4b fa 3a 22 3e 02 3b
       0.0009523622 0.03523874 0.0019096107 0.001987346
000150 d3 f2 09 3d 65 c4 92 b8 be b3 71 3a 53 d6 5b 3b
       0.03367884 -6.998404e-05 0.0009220204 0.0033544495
000160 95 1a fe 3a 34 36 30 3c 48 67 c5 3b b1 09 33 3b
       0.0019386584 0.0107551105 0.006024275 0.002731901
000170 37 56 c8 3c 9b c9 8a bc 6a 01 c0 3b 5c 65 07 bc
       0.024455173 -0.016941836 0.0058595436 -0.008263912
000180 8e ed da bc 56 e4 70 bd be 0d c2 3a 6a f5 43 3b
       -0.026724603 -0.058811508 0.0014805121 0.0029900917
000190 c6 e0 60 bc e6 cc 24 3b df 9a 87 bb b1 28 8c 3b
       -0.013725465 0.0025146543 -0.004138335 0.0042773117
0001a0 61 a3 19 bc eb 44 60 bc f1 7f b4 bb 0d ce dc 3c
       -0.0093773315 -0.013688306 -0.005508416 0.026953721
0001b0 eb 2a cd bb c8 7c 08 bc 62 44 b5 3c fb ec eb bb
       -0.0062612197 -0.008330531 0.022127334 -0.007199881
0001c0 4e 88 ea bc 48 5e 48 3c 91 00 2a bc 9e ef a6 bb
       -0.028629448 0.01222951 -0.010376112 -0.0050944826
0001d0 33 06 8e 3a 1c 0f 03 bc 43 34 ab 3c e0 10 ce 3b
       0.0010835588 -0.007999208 0.020898944 0.0062886328
0001e0 a2 e3 b5 3b 99 ef 80 3c d1 98 02 bc c3 dd cd ba
       0.0055508176 0.015739249 -0.007971005 -0.0015706349
0001f0 9a 1c 87 3b b8 70 08 bb e5 94 7e bb 60 98 6b 3a
       0.0041232826 -0.0020819139 -0.0038846072 0.0008987244

model.2.weight f4 [128, 128]
000000 f5 22 51 3e be 3c 01 3e 84 5f 0d bd 4b 66 92 bd
       0.20423491 0.12620828 -0.03451492 -0.07148417
000010 ed 7e 8a bd 41 19 4f bd 43 9e de 3d ae 51 87 3d
       -0.067624904 -0.050561193 0.1087003 0.06607376
000020 3b 5b 2b be 49 18 82 bd 00 08 02 be e5 1e 75 3c
       -0.1673402 -0.06352288 -0.12698364 0.014960979
000030 ac 1a 3d 3d d0 0e 80 bc 83 f3 a2 bc bf f6 2b 3e
       0.046168014 -0.015632063 -0.019891506 0.16793345
000040 dd 90 43 3e 46 de 11 be 8e d6 aa 3d 01 28 30 be
       0.1909823 -0.14244947 0.08341704 -0.1720276
000050 4e 2f 03 3e b0 62 0b 3e eb 56 39 3e 98 15 24 3e
       0.12811014 0.13611865 0.18099563 0.16023862
000060 26 f5 93 bd 79 2d 00 3c 9c 0c 18 be 75 c1 e2 3d
       -0.07224493 0.0078233415 -0.1484856 0.11072055
000070 48 fb c1 bd f3 a1 c7 bd df d3 06 be 74 0e 42 3e
       -0.09471756 -0.09747686 -0.1316676 0.18950826
000080 50 e0 20 be e5 dd 3f 3e 44 93 58 be 36 0a d2 3d
       -0.15710568 0.1873699 -0.21149927 0.10255854
000090 4d 2e e6 3d ba 0c 10 be 73 a0 20 be ea 19 12 be
       0.112393 -0.14067355 -0.15686207 -0.14267698
0000a0 c1 c0 05 3e cd 23 33 be e5 46 45 3e 25 f5 0d be
       0.13061811 -0.17494126 0.19265325 -0.13863046
0000b0 5c dd 49 be 96 df 47 be 5b 88 18 3e e0 98 49 3d
       -0.19713348 -0.19518885 0.14895765 0.04921806
0000c0 6c 08 60 be 44 24 c1 3c 90 66 3f be 89 11 18 3d
       -0.21878213 0.023576863 -0.18691468 0.037126098
0000d0 e1 c0 26 be db ae 53 be 4a 1d 1b 3d 3a 05 15 be
       -0.16284515 -0.20672171 0.03786973 -0.14552775
0000e0 84 36 3b 3d 47 d7 f1 3d 6b 73 75 bb f5 60 4b 3e
       0.045706287 0.11808639 -0.0037452828 0.19861205
0000f0 71 b3 5a 3d b8 9e 76 3d fd 01 20 3e b5 7d 3c 3e
       0.053393785 0.06020996 0.15625758 0.18407328
000100 62 19 23 be 72 47 85 bd 45 30 a5 bd 77 72 97 3d
       -0.15927652 -0.06507768 -0.08065847 0.07394879
000110 84 97 48 3e 14 44 d5 bd 46 2e 54 be aa 30 bf 3d
       0.19589049 -0.104133755 -0.20720777 0.09335454
000120 76 2a e2 3c 91 b6 17 bd 47 88 40 bd c6 e8 01 3d
       0.027608138 -0.037039343 -0.047004964 0.03171613
000130 aa 01 3e be f5 d4 09 be 04 57 3e 3e 7a 3e 55 be
       -0.18555322 -0.13460143 0.18587881 -0.20824614
000140 a0 0f 09 be 1f de 44 3e ad c4 1e 3d 52 c1 1a be
       -0.13384867 0.19225357 0.038761783 -0.15112808
000150 c6 75 a9 bd f4 4b 5e 3c fc f6 0a 3e 6b b9 85 bd
       -0.082744166 0.013567913 0.1357078 -0.06529506
000160 c2 64 29 3e 76 28 23 3d 1d 2d ca 3d 31 76 ed bc
       0.16542342 0.03983351 0.09871886 -0.028987022
000170 e1 e7 20 3e b2 b3 38 3e 39 fc 3a be f0 f2 38 bc
       0.15713455 0.18037298 -0.18260278 -0.01128839
000180 17 6c 8a bc b5 19 ee 3c 10 64 76 3d 1d 9e 48 3e
       -0.016897244 0.029064992 0.06015402 0.19591565
000190 6b b6 d1 3d 60 e2 1f 3d 30 ea e1 3d ac 93 65 3d
       0.102398716 0.039034247 0.11030996 0.056049034
0001a0 7a 23 33 3e 7c bd 4f 3e 33 03 08 3d f0 5a f0 3c
       0.17494002 0.20287126 0.033206176 0.029340237
0001b0 11 51 5b bd c6 82 bf bd 6f dd db bd 3a 25 09 3e
       -0.053544108 -0.09351115 -0.107355945 0.13393107
0001c0 5d 10 7c 3d c0 f9 ec 3d 12 02 37 be ea 7f 0e be
       0.061539043 0.115710735 -0.17871884 -0.13915983
0001d0 c5 3e fe 3d cd cf 39 be df c9 ca bd 32 e4 1d 3e
       0.12414316 -0.18145676 -0.09901785 0.15419081
0001e0 f4 72 c1 3d bb 3a 49 3d 18 0a 09 3e 59 36 46 be
       0.09445754 0.049128275 0.13382757 -0.1935667
0001f0 4c 2e 4e 3e 78 02 1f bd dc fd 8d bd 51 35 3c 3e
       0.20134848 -0.038820714 -0.069331855 0.18379714
000200 d2 e0 95 3d ed 01 57 bb 84 59 3f bb 48 10 9f bd
       0.07318272 -0.0032807544 -0.0029197643 -0.07766777
000210 24 40 a7 bd 88 fe d4 3d f5 20 3a 3e fe 32 c9 3d
       -0.08166531 0.104001105 0.18176635 0.09824179
000220 b1 cb 17 be ca eb 05 be fd fa af 3d fe d1 9b bd
       -0.14823796 -0.13078228 0.08592794 -0.07608412
000230 6c ea 33 3a cf a3 66 bd fb e1 4b be cc e0 23 3d
       0.00068632397 -0.056308564 -0.19910423 0.040009305
000240 83 c2 0e 3d e4 27 41 bd 5e cb ac 3d e6 a6 8a bd
       0.03485347 -0.047157183 0.08437227 -0.067701146
000250 1c 37 fd 3d 18 f2 86 bb 9b bf 20 bd d4 8c 2b be
       0.12364027 -0.0041182153 -0.03924523 -0.1675294
000260 47 da 6c bd 28 5d 0d 3e af 8f a1 3d 46 7b 21 be
       -0.057825353 0.13805068 0.078887336 -0.15769681
000270 1b 90 09 be 6c 00 0f 3e df 87 16 3e 7b 81 0e 3e
       -0.13433878 0.13965005 0.14700268 0.1391658
000280 79 23 d7 bd df 19 b4 3d d8 67 06 be d4 f9 65 be
       -0.10504813 0.08793997 -0.13125551 -0.22458583
000290 3f 1c df 3d 45 cd 26 3e 83 46 44 3d 67 56 1a be
       0.108940594 0.16289242 0.047918808 -0.15072022
0002a0 b1 de da 3d 23 db 74 bd f2 b3 b2 bd 1f 4a 36 bd
       0.10687006 -0.059779298 -0.08725728 -0.04450428
0002b0 84 6a 34 3e 07 1f 62 bd 76 4d df 3b 5c c6 2b be
       0.17618757 -0.05520537 0.006814654 -0.16774887
0002c0 ed a5 4e be 35 b9 0c 3e fc e9 e4 3d 40 21 4f 3c
       -0.20180483 0.13742526 0.111774415 0.012642205
0002d0 e9 d8 50 3e e9 a0 9d 3d e2 9a 27 be fd ba da bd
       0.20395245 0.07696707 -0.16367677 -0.106801964
0002e0 94 46 1b 3e 95 f8 30 3e 94 bb 49 ba ca f7 15 bc
       0.15163642 0.17282327 -0.0007695493 -0.009153316
0002f0 d3 b3 34 3e a3 15 06 3e 06 38 28 3e c3 34 d6 3d
       0.17646722 0.13094191 0.16427621 0.10459282
000300 c2 ec ef bd 9a 3b 13 be 40 a1 a5 3d b0 f6 bc bc
       -0.1171508 -0.14378205 0.080873966 -0.023066849
000310 8b e3 15 be d5 a6 eb 3d 37 79 11 be 00 61 ce 3d
       -0.14637582 0.1150643 -0.14206396 0.10077095
000320 45 2c 0d be 9a 97 fd bd ad f1 cf 3d d0 ef 71 3c
       -0.13786419 -0.12382431 0.10153518 0.014766648
000330 8a e8 2b 3e 68 7b 4b 3e 83 97 16 be 74 e0 14 be
       0.16787925 0.19871294 -0.14706235 -0.14538747
000340 ba 42 39 bd 7a 61 6a bd b2 1e 15 bd 4e 64 c2 3d
       -0.04522965 -0.057221867 -0.036406226 0.09491788
000350 f8 cc 10 3d dd cd 09 be c1 5c 14 be 46 0e 2b 3d
       0.035351723 -0.13457437 -0.14488508 0.04176166
000360 c8 e7 8c bc 1e e1 a5 bd e5 3b 4d be 16 9e 50 be
       -0.017200366 -0.08099578 -0.20042379 -0.20372805
000370 fa 87 1e 3e 27 3b d9 3d 98 22 f8 3c 32 e8 cb 3d
       0.15481558 0.106069855 0.030289933 0.09956397
000380 78 26 56 3d 86 c3 2a 3e 5c e2 fc bd 24 a0 5d 3e
       0.05228278 0.16676149 -0.12347862 0.2164312
000390 bc d1 77 3d 36 30 8a 3d c2 46 d1 bd 9d 7e ba bd
       0.060502753 0.06747477 -0.10218574 -0.09106181
0003a0 09 35 63 3d 0c 89 0a 3e aa 24 c9 3d af e9 11 be
       0.0554705 0.13528842 0.09821446 -0.142493
0003b0 6d 8e 45 be 6b bf 57 bd 98 db 90 bd da 55 55 3e
       -0.19292612 -0.052672785 -0.07073134 0.20833531
0003c0 e5 db ee 3d 46 8c fd bd 5c 96 0f 3e 7a ec 36 be
       0.11663035 -0.12380271 0.14022201 -0.17863646
0003d0 31 36 9b 3d 95 6e 09 bc 32 17 16 be 00 f2 a0 bd
       0.075786956 -0.008388181 -0.14657286 -0.07858658
0003e0 06 60 aa 3d e8 eb f2 bd 58 fc 1b 3e 1a 3c 3b bd
       0.08319096 -0.11861402 0.1523298 -0.045711614
0003f0 7a 53 11 bc 8e 24 f5 3d 13 d4 54 be 55 80 50 3e
       -0.00887 0.11969863 -0.20784025 0.20361455

model.2.bias f4 [128]
000000 e5 b1 22 3c ba c2 cf bc 36 0a 8e 3b 46 60 ae bb
       0.009930109 -0.025361408 0.0043347133 -0.0053215353
000010 35 7c 43 3d 90 bf 36 3c e5 58 10 bd 28 60 28 3b
       0.047725875 0.0111540705 -0.035241026 0.002569208
000020 0a d8 6a 39 c4 8c d7 bb c0 69 c9 bb 26 ce 7a bb
       0.0002239646 -0.00657806 -0.0061466396 -0.0038269847
000030 dc 91 8a 3a fe e3 99 3d 6b e7 0f 3d f0 04 34 3c
       0.0010572034 0.07514189 0.035132807 0.010987505
000040 1e a9 09 3e 00 cb 24 3b 9b 09 8d 3b ea c1 73 bb
       0.1344342 0.0025145411 0.0043041236 -0.003719444
000050 52 00 18 3b 21 5c 70 bb f6 24 07 3c 40 af 30 3a
       0.002319355 -0.0036676007 0.008248558 0.00067399815
000060 fd cb 7c 3c 29 1d a5 3c 83 d7 0b ba 72 51 58 3b
       0.015429494 0.020155506 -0.0005334543 0.003300753
000070 83 87 0b bb ca 37 4e 3b 7e f4 2c 3b ad 1a da bb
       -0.0021290488 0.0031466358 0.0026390846 -0.006656012
000080 72 0d 88 3b c0 33 bb ba ca 73 93 3d 27 00 9e ba
       0.0041519934 -0.001428239 0.071998194 -0.0012054489
000090 a5 3a b8 3b dd 23 b0 bb 80 f2 b2 b9 08 26 f8 ba
       0.0056222253 -0.005375369 -0.00034131482 -0.0018932233
0000a0 d1 1c ab 3b 68 4d a0 3b dd 8e 49 bb 41 2e a7 bc
       0.005221941 0.00489204 -0.003075532 -0.020407798
0000b0 32 f9 15 b9 42 b4 c3 bb e0 62 2c 3d 6b fb ca 3a
       -0.0001430258 -0.005972416 0.042086482 0.0015486305
0000c0 67 11 8a 39 06 ae cd ba a7 f0 2c 39 76 90 7f 3b
       0.00026334377 -0.0015692122 0.00016492848 0.0038996018
0000d0 0a 60 5e 3b 6b 3e 4c 3d 19 7c e1 bb e9 dd 35 bc
       0.0033931755 0.049864214 -0.0068812487 -0.011100271
0000e0 e4 28 23 3b 06 a5 9b 3b 5b 01 62 3b ab 6b 0f bc
       0.00248962 0.004749897 0.0034485671 -0.008753697
0000f0 67 b8 a4 bb a9 1e a1 3c 6a 32 79 3b ad d7 0b 3a
       -0.0050268653 0.01966794 0.0038024434 0.00053345674
000100 61 f6 8c bb c4 5d ac 3a 85 50 3c bd e5 c0 d5 3b
       -0.0043018316 0.0013150503 -0.045975227 0.006523239
000110 56 8a fe bc bf 2d c2 3b fb f8 64 bd 8d 10 97 bb
       -0.031071823 0.0059258635 -0.05590151 -0.0046101273
000120 64 e4 2b 3c 60 4b 06 3b 71 f1 fe ba 25 e9 d4 bc
       0.010491464 0.0020491704 -0.0019450617 -0.025990078
000130 c0 7b 87 bc a2 11 92 ba af 64 7e bb 0d bd fa 3b
       -0.0165385 -0.0011144171 -0.0038817336 0.007651931
000140 90 26 f2 39 5a ba ab bb da 13 7a 3c 4d fb 28 3c
       0.00046186568 -0.0052407207 0.015263522 0.010313821
000150 a7 43 36 bb f3 0b fe ba 59 eb 35 bc b4 08 24 3a
       -0.002781132 -0.0019382223 -0.011103475 0.00062574004
000160 be 6a d9 39 63 cf df bb 96 6d 9e 3b 45 ee e4 ba
       0.00041468994 -0.0068301423 0.004834841 -0.0017466029
000170 0f db 2f 3c 9e 56 f9 3a 7f 71 de bb ac 49 02 3b
       0.01073338 0.0019023006 -0.006788432 0.0019880338
000180 b6 0e 4c 39 8b a2 33 3a 7a 25 32 bb 45 91 14 3d
       0.00019460436 0.0006852529 -0.0027182982 0.036271352
000190 2a db d8 3a 14 96 a0 ba 68 17 97 3a 8e d7 0d bb
       0.0016544808 -0.0012251758 0.0011527361 -0.0021643373
0001a0 60 62 d6 bd f2 d6 4c 3c 5d 8b 56 bd 5a 4b 52 3b
       -0.10467982 0.012502419 -0.052379 0.003208837
0001b0 fc 0b e4 3a f3 4c cb 3a c2 79 61 3b a0 98 60 3b
       0.0017398591 0.0015510604 0.0034404849 0.003427066
0001c0 cd 92 ed 3b 6b cd a5 3a 91 b9 b5 ba b1 0d df 3b
       0.007250166 0.001264972 -0.0013864507 0.006807052
0001d0 b5 4c 33 3c c6 e7 42 3b 7f b9 77 bb ca 8e 15 3d
       0.010943581 0.0029740199 -0.0037799773 0.036513127
0001e0 53 a4 d5 bb 73 fe 3d bb 40 11 cc bd 5d 29 53 3c
       -0.006519833 -0.0028990775 -0.09964228 0.01288828
0001f0 44 da ac bb 63 02 d0 bb 3f dc e7 bd bd 0e 1b 3b
       -0.0052750427 -0.006347941 -0.113213055 0.0023659908

model.4.weight f4 [128, 128]
000000 02 ed 51 be 60 0b f9 3d 8a de 15 3e c6 ec 03 3e
       -0.20500568 0.12160373 0.14635673 0.1288329
000010 bf b6 8d 3d 62 d5 69 bd 6c 9e 7c bd e1 45 e3 3c
       0.06919622 -0.057088263 -0.06167452 0.027743282
000020 e7 9d ca bd b3 dd c7 3d 48 49 55 be 4e 29 f3 3d
       -0.09893399 0.09759083 -0.20828736 0.118731126
000030 6b 64 24 be e1 3e 31 3e d4 25 32 be 7b 8b 54 be
       -0.16053931 0.17309143 -0.17397243 -0.20756333
000040 b2 75 49 3e 41 fe 34 3e 70 9c 1d be e2 de 7f 3d
       0.19673803 0.17675115 -0.15391707 0.062468417
000050 60 1c 3a bd fc 96 cd 3d 0d 4b 94 bd b8 73 f0 bd
       -0.045437217 0.100385636 -0.07240877 -0.117408216
000060 93 43 c8 bd 21 f1 3b be f8 55 79 bd 53 f6 eb bd
       -0.09778514 -0.18353702 -0.060873 -0.11521592
000070 15 21 68 3d a0 23 00 3e e1 08 06 3e ad 83 2a be
       0.056672174 0.1251359 0.13089325 -0.16651793
000080 d5 40 97 bd 76 9b 42 be 46 79 d6 bc eb 33 3b be
       -0.073854126 -0.19004616 -0.026180875 -0.18281524
000090 e8 b3 e3 3d 56 74 f8 3d 99 8d 08 be fa 26 4f 3e
       0.11118299 0.12131564 -0.13335265 0.20229712
0000a0 11 d0 ce bd a2 26 6f bc ed e7 71 bd 61 1c 9f 3d
       -0.10098279 -0.014596613 -0.059059072 0.07769085
0000b0 89 21 30 be bf 37 d4 3d 58 1a 96 3d 87 bf 0a 3e
       -0.17200293 0.10362195 0.073292434 0.13549624
0000c0 9e b2 29 be 86 0f c5 bc 5a ca d8 3c 94 32 19 be
       -0.16572043 -0.024055254 0.026463676 -0.149607
0000d0 59 a9 1a bd 57 f4 11 be 03 7d e6 3c 3c 5a 4b bd
       -0.03775916 -0.14253365 0.028135782 -0.0496466
0000e0 b1 66 36 bd e7 f3 c3 bb bb 0a ea bd e3 bf ca 3c
       -0.044531528 -0.005980003 -0.11427828 0.024749702
0000f0 d3 96 e4 bc a4 07 2a be 8d 57 e6 3d 99 7b e8 bd
       -0.02790395 -0.16604477 0.11247168 -0.113516994
000100 57 ba 57 3c 89 e0 3e 3d e0 0f 5d be 33 22 82 3b
       0.0131669855 0.046600852 -0.21588087 0.003971362
000110 d4 18 88 bd 27 4b d2 bd 8c 75 d7 bd 98 94 45 bd
       -0.066453606 -0.102682404 -0.10520467 -0.048237413
000120 6f 7b f5 3d 6e c6 c6 3c 68 29 23 be 5d df 4d bd
       0.11986434 0.02426454 -0.15933764 -0.050261844
000130 d3 ba 41 bd ad 16 d9 3d 82 59 6d bd 39 6f 90 bc
       -0.04729731 0.10600028 -0.05794669 -0.01763116
000140 18 4e 1e be 4d a8 be 3d bc 3a fd bc 5b e8 ed bd
       -0.15459478 0.093094446 -0.030911796 -0.11616584
000150 70 b6 6e bd f8 28 15 be ce d9 42 bd 8c de 06 bd
       -0.058279455 -0.1456641 -0.047570996 -0.03292708
000160 8e 91 2d be 52 08 20 be f3 97 35 be 69 69 9d bd
       -0.16950056 -0.15628174 -0.17733745 -0.07686121
000170 92 c6 17 3e 9d 1b 15 3d ad ad 15 3e 57 30 23 3c
       0.14821842 0.036403287 0.14617033 0.009960256
000180 9d fc 35 bd 0f ad fa bd 6a 4d 1f be 93 35 0c be
       -0.044430364 -0.122400396 -0.15556875 -0.13692312
000190 e3 a7 8f 3d 95 dc 0b 3c 0c ce fb 3c 82 4e 38 3e
       0.07014444 0.008536478 0.0307379 0.17998698
0001a0 0c 8e 03 be 59 fc d4 bd 1d 72 45 3e 93 40 26 be
       -0.12847155 -0.10399694 0.19281812 -0.1623557
0001b0 a4 60 dd 3d 43 e8 56 3b 79 d3 bc 3d 0c 88 09 3e
       0.10809448 0.0032792247 0.09220023 0.13430804
0001c0 e1 b4 3c 3e 14 d0 22 bd 2a cd 56 3e ee 5e 22 be
       0.18428375 -0.03974922 0.20976701 -0.15856525
0001d0 93 90 a5 bd 26 2c ed 3d 5c 5e 81 ba 59 46 06 be
       -0.08084216 0.11580686 -0.000987004 -0.13112773
0001e0 4d 9f 00 3e 12 89 86 3d 90 aa da bd 36 0c ea bd
       0.12560768 0.06569113 -0.106770635 -0.1142811
0001f0 ff fa 22 be fd 69 3c 3e 3f 8d 59 be 1a eb 42 3e
       -0.1591606 0.18399806 -0.21245287 0.19034997
000200 36 7b ba 3d 91 6b 9a bd 00 d4 2e 3e 45 de 2e bd
       0.09105532 -0.07540048 0.17073059 -0.04269244
000210 f7 53 0c be 6a 41 90 3c 69 23 25 3d 32 80 3b be
       -0.13703905 0.017609317 0.040316973 -0.18310621
000220 22 cc a2 bc 7a b5 a7 bd dc 09 5d 3c df e9 9f 3d
       -0.019872729 -0.08188911 0.01349112 0.07808279
000230 0d b7 bf bd bf c8 30 3e 73 36 8f bd 9d 03 05 3d
       -0.09361086 0.17264079 -0.06992807 0.03247415
000240 9a ca 53 3d 7a fd 96 bc fc 22 4e be 0c ef 9c bd
       0.051706888 -0.018431414 -0.20130533 -0.07662782
000250 44 01 68 bd 5b 51 1b bb b9 7d 30 3e d2 bf f9 bd
       -0.056641832 -0.0023699615 0.1723546 -0.1219479
000260 dd 68 1e 3e 4c 88 2f 3e a7 70 19 3d 61 0b 12 3e
       0.1546969 0.17141837 0.03746095 0.14262153
000270 39 16 1a be a9 84 33 3e 6b 3f 33 be 5c ec 4d bd
       -0.1504754 0.17531075 -0.17504661 -0.050274238
000280 f2 68 39 3e b1 d5 58 3d 29 c7 0d be 9f e1 ec bc
       0.1810644 0.052938167 -0.13845505 -0.028916178
000290 34 11 3b 3e 6b b2 4f be 3a d9 38 3e e5 21 b5 bd
       0.18268281 -0.20282905 0.18051615 -0.088443555
0002a0 31 bf 5c 3e a8 b7 e1 bd 7b 11 af bd 61 f5 03 be
       0.21557309 -0.11021358 -0.08548256 -0.12886573
0002b0 c8 dc 02 3e 7d c9 6a bd cd b2 2b be c4 16 74 3d
       0.12779534 -0.05732106 -0.16767426 0.059592023
0002c0 97 36 4f 3d 0a 52 51 be bb b4 cd bb 4c 13 44 be
       0.05058917 -0.20441452 -0.0062776483 -0.19147986
0002d0 9e 2e 43 3e 0e 45 35 3e d1 61 50 be 97 b6 03 3d
       0.19060752 0.17702124 -0.20349814 0.032156553
0002e0 cf 71 01 be 6c bb 62 bd a7 fc 26 3e 8a a5 ff 3d
       -0.12641071 -0.05535452 0.16307317 0.12482746
0002f0 54 79 24 bd 17 f9 4a 3e 98 26 5a 3d ef 88 cc 3d
       -0.04015477 0.19821583 0.053259462 0.099870555
000300 5b 59 49 be a2 4c 2c 3d 05 de 19 3e 9c 17 ab 3d
       -0.19662993 0.04206527 0.150261 0.083541125
000310 85 45 47 bd 7d b7 3d be 60 70 cf 3d 14 6f dc bd
       -0.048650283 -0.18527026 0.10128856 -0.10763374
000320 34 95 8b 3d 09 d8 ff bd 65 1a 04 be 22 24 22 bd
       0.068155676 -0.12492377 -0.12900694 -0.03958524
000330 31 3a 1c 3c 65 aa 00 be 34 3e 45 3e bf e1 59 bd
       0.009535358 -0.12565 0.1926201 -0.053193804
000340 af e7 58 3e 58 71 2b 3e 15 bb b2 3d 11 12 a1 3c
       0.2118213 0.16742456 0.08727089 0.019661935
000350 52 55 de 3d fa 53 2e be 64 96 d5 3d 51 08 92 3d
       0.10856117 -0.17024222 0.10429075 0.071304925
000360 08 bb 34 3e 3a d4 86 bd cf e1 52 3d 38 62 30 bb
       0.17649472 -0.06583448 0.05148488 -0.0026914012
000370 67 27 a2 bc a7 fe f1 bc 7c 63 49 3e f4 d3 6d bd
       -0.01979418 -0.029540373 0.19666857 -0.058063462
000380 d2 d0 bf 3d f2 e1 51 3c 0b 96 f6 3d af ee ea 3d
       0.09366001 0.012810217 0.12040337 0.114713065
000390 03 52 5e be 92 d9 a4 bd f9 37 cc bb f2 15 4c 3d
       -0.21710972 -0.08049311 -0.0062322584 0.049825616
0003a0 d1 56 17 3d 3d 85 48 bd 13 98 ae 3d 32 25 14 3e
       0.03694803 -0.04895519 0.085250996 0.14467314
0003b0 80 91 ce bd e7 c5 98 3d d0 10 26 3e 91 b8 c3 bd
       -0.10086346 0.07459622 0.16217351 -0.095566876
0003c0 56 b9 4a be 14 2a 26 be 27 7d e4 3d 02 3d 5f 3e
       -0.19797263 -0.16226989 0.111566834 0.21800616
0003d0 3c 8c 4b be d4 5e 01 3e 23 fc 28 3e ea 26 64 3d
       -0.19877714 0.1263383 0.16502433 0.055701174
0003e0 5d 2f 7e 3d 5e 10 09 be 68 fd 44 3d 4e f5 7a 3c
       0.062056888 -0.1338515 0.04809323 0.015317274
0003f0 f6 23 11 3d 5b 63 53 be b0 87 39 bd c1 b0 07 3d
       0.035434686 -0.2064337 -0.045295417 0.03312755

model.4.bias f4 [128]
000000 dc 39 fa bb d7 42 d0 38 4d 39 f8 3b 58 bd 72 3b
       -0.007636292 9.930663e-05 0.00757519 0.0037039127
000010 84 03 87 3d 6c c8 95 3b 67 c5 d9 bd 15 62 7a 3a
       0.065924674 0.0045710113 -0.10633355 0.00095513585
000020 09 c3 64 bb 84 52 16 3b bd 6c 1a 39 ee 49 4d 3a
       -0.003490629 0.0022937367 0.00014727093 0.0007831146
000030 e5 c0 c8 3b 95 32 7f 3b 4a f6 8f 3c 48 d8 2b bc
       0.0061265104 0.0038940061 0.017573494 -0.010488577
000040 67 f2 58 bb 7e 52 1a 3c ee ec 21 3b 11 03 6b 3b
       -0.0033103467 0.009419082 0.0024707871 0.0035859982
000050 bb ce 44 3a ce fc 10 3c 4e 8e 06 3c 0f 66 29 3b
       0.0007507612 0.008849336 0.008212639 0.0025848185
000060 cb 42 de 3a f6 e2 96 3b ab 70 62 3a b1 51 8f 3b
       0.0016957162 0.0046046926 0.00086380047 0.004373752
000070 e3 df 41 b8 d1 3e a0 ba 79 2f c4 39 55 46 67 bb
       -4.6223297e-05 -0.0012225752 0.00037419403 -0.0035289724
000080 a8 6e 89 3b d4 0a d1 3b b6 06 01 3c be 88 97 bb
       0.0041940995 0.0063794646 0.007875135 -0.0046244552
000090 37 02 55 bc b6 30 ee b9 f5 ed 8d 3a b2 6a 8c 3b
       -0.013001016 -0.0004543119 0.0010828363 0.00428518
0000a0 0f 9f ef 39 90 77 01 bb d2 7e 80 39 71 75 38 bc
       0.0004570414 -0.0019755103 0.0002450855 -0.011258469
0000b0 54 46 d0 ba 36 c8 3c 3b 64 38 3b 3c 91 21 76 3c
       -0.00158901 0.0028805858 0.011427019 0.015022651
0000c0 37 bb 87 b9 68 00 5e bb 83 3d f8 b8 3e 80 7b bb
       -0.00025888692 -0.0033874754 -0.00011837019 -0.0038376
0000d0 3a 55 fc 3a 1c 3c 8a ba d9 ee 06 bb a6 67 2e ba
       0.0019251474 -0.0010546478 -0.0020589142 -0.0006653018
0000e0 83 04 c4 b9 d5 17 c9 bb a1 3a 93 3b 64 44 50 3c
       -0.00037387395 -0.006136874 0.004493073 0.012711618
0000f0 b1 a1 b8 bc 5e 82 b3 3d 66 02 b2 3b 4a 28 ff bb
       -0.022538038 0.087651 0.005432415 -0.0077867853
000100 ff 04 ca 3c 59 66 ca 3a 4d 11 31 bb 40 34 e0 bc
       0.024660585 0.0015441879 -0.0027018369 -0.027368665
000110 85 86 b6 3c 07 c0 db 3a 14 66 a1 ba 7e e6 e7 bc
       0.02228094 0.0016765603 -0.0012313747 -0.02830815
000120 28 2f 93 ba 62 62 40 3c c7 08 0d 3c bd 78 2f 3a
       -0.0011229264 0.011742206 0.00860805 0.00066937116
000130 dd f6 0d be ea 16 55 3d bd 0f 69 b9 11 4e b0 bb
       -0.13863702 0.052023806 -0.00022226475 -0.0053804
000140 80 ba af 3c 89 f4 56 3b 6d de 9d 3c 63 c3 0e 3b
       0.021451235 0.0032799563 0.0192711 0.002178394
000150 00 98 fb 3c e0 5c 61 39 76 33 17 bc ba b9 00 bb
       0.030712128 0.00021492271 -0.009228578 -0.0019641952
000160 fc 00 cd bb 58 90 d0 3a 02 9e c0 bc d4 d7 b9 bb
       -0.006256221 0.0015912158 -0.023512844 -0.0056714807
000170 3d 8a 71 bc ea ea 0c bb 9c 76 aa 3b 99 d0 41 3b
       -0.014742431 -0.0021502324 0.0052021276 0.0029573797
000180 75 1d a3 3b 3f c5 cd 3b f1 f3 d5 bb c0 8a 6c ba
       0.004977877 0.006279617 -0.006529324 -0.0009023361
000190 36 d2 8a bb 78 26 9f 3a 11 9e 15 3c ef eb e1 3b
       -0.004236485 0.0012142202 0.009131924 0.0068945806
0001a0 35 ec c5 3b 72 d4 42 3a a5 e4 62 ba b4 f1 f0 bb
       0.006040121 0.00074321695 -0.00086552865 -0.007353032
0001b0 7f 23 c9 3a 79 f3 27 3c 3f cf f5 3b 3a 1e 92 bb
       0.0015345662 0.0102509195 0.0075015123 -0.0044591697
0001c0 04 91 a7 bc b2 a3 29 37 6c 03 50 3b 91 2f e6 3a
       -0.020454891 1.0111298e-05 0.003174032 0.0017561783
0001d0 df 4b 3d 3d af 30 b5 3a be 8a 04 39 a5 c9 1c bb
       0.046214934 0.0013823713 0.00012640186 -0.00239239
0001e0 dc c7 b5 3b ef 16 45 3b 99 fe 6d 3d 1a 8b 53 3a
       0.0055475067 0.0030073484 0.05810413 0.0008069739
0001f0 ef 41 01 ba a2 9a 46 bc 1a cf 5c b9 a1 8e ac bb
       -0.00049307843 -0.012121828 -0.00021057986 -0.005266026

model.0.weight f4 [128, 1]
000000 1a 58 b2 3f 13 85 e4 bf b4 6a b0 bf 88 5c c8 3f
       1.3933136 -1.7853111 -1.3782563 1.5653238
000010 d1 98 77 3f ea 3a 91 3f 39 0b a7 bf 1f 20 fb 3f
       0.96717554 1.1346104 -1.30503 1.9619178
000020 d7 24 0a bf 65 a1 12 3f e3 81 19 3c 4a a8 a6 bf
       -0.53962463 0.5727752 0.009369346 -1.3020108
000030 4f df f9 3f 68 ee 46 bd 15 d6 86 3f 7f 3e 75 3f
       1.9521273 -0.048567206 1.0534083 0.95798486
000040 6d f5 2d bf 03 e5 26 be 69 5f bc 3f 99 5e a2 bf
       -0.67952615 -0.16298299 1.4716617 -1.2685119
000050 a6 09 00 c0 83 28 f9 3f 5f 04 d5 3e 4d 66 ed 3f
       -2.000589 1.9465488 0.41604897 1.8546845
000060 97 53 10 c0 a1 76 6c bd 1b 94 07 c0 96 ab 06 3f
       -2.255102 -0.05773032 -2.1184146 0.5260557
000070 45 07 0f bf 3f 30 99 3f 92 41 f3 3f 13 42 dd bf
       -0.5587047 1.1967849 1.9004385 -1.7285789
000080 04 67 2e bf 68 86 f3 3f b8 d9 f7 bf 8a 42 f0 be
       -0.6812594 1.9025393 -1.9363317 -0.46925765
000090 7b d2 19 3e cd c8 0f c0 9f 87 d8 3f ca 82 80 3f
       0.15021698 -2.246631 1.6916388 1.0039914
0000a0 ae f7 06 bf 7d 4a 66 3f 71 48 cd 3d f4 cd f7 be
       -0.5272168 0.8995741 0.10023583 -0.48399317
0000b0 e6 ef a1 bf d2 45 aa 3f a7 7d 14 c0 36 0f 21 bf
       -1.2651336 1.3302557 -2.3201692 -0.62913835
0000c0 93 d8 13 bf ae 1d 33 bf 98 1b ed bf 2d 32 f4 3e
       -0.5775234 -0.6996716 -1.8524046 0.4769453
0000d0 cc 85 e4 bf 25 79 1d c0 8b 4e 7a bf d5 01 7b 3f
       -1.7853332 -2.460519 -0.977761 0.9804967
0000e0 36 ef da 3f 22 c5 84 bf a5 d1 92 bf d3 ec 1c c0
       1.7104251 -1.037266 -1.1470228 -2.4519546
0000f0 c6 a2 99 3f 2c 0b bc be 87 23 08 c0 05 cd 40 bf
       1.20028 -0.36727273 -2.1271684 -0.75312835
000100 ce bd d0 bf a3 35 fa 3e 0a c8 d8 3e cc 69 67 bf
       -1.6307924 0.48869047 0.42340118 -0.9039581
000110 d8 de 16 40 9d 9d ed 3f c9 d5 19 c0 25 1d 11 bf
       2.3573513 1.8563725 -2.4036734 -0.56685096
000120 de 5f a6 3f 5c fc fa be 9e bc 91 bf 25 99 eb bf
       1.2998006 -0.4902066 -1.1385686 -1.8406111
000130 30 2d 4b 3e fd 46 9e bf 19 1b 16 c0 52 49 08 c0
       0.19841456 -1.2365414 -2.345404 -2.129475
000140 6a dc f5 bf d8 46 c9 bf 95 1b 15 bf 61 17 db bf
       -1.920789 -1.5724745 -0.5824521 -1.711651
000150 c4 09 6b 3f c2 87 ad 3e e3 98 0a 40 7c 2a 3b 3e
       0.91811776 0.33892637 2.1655815 0.18277925
000160 cf 99 5f 3f 30 11 2a 3f 34 64 80 3f 58 f4 14 c0
       0.8734407 0.66432476 1.003058 -2.3274136
000170 fe 0a 13 40 0c 56 91 3f 0b f8 0d bd 06 55 0c be
       2.297546 1.1354384 -0.03466038 -0.13704309
000180 59 b6 0e c0 a3 31 7d bd 90 e6 cd bf 04 a1 9e 3f
       -2.2298796 -0.061814915 -1.6085987 1.2392888
000190 78 e1 81 be 3f 62 dc bf 5f a6 8a bf d8 bd d7 bf
       -0.25367332 -1.7217482 -1.0832022 -1.6854811
0001a0 c6 54 18 c0 b4 96 3d bf 7f 51 0e 40 08 33 c7 bf
       -2.3801742 -0.7405808 2.2237241 -1.5562449
0001b0 b4 49 ad bf ce 7d ba bf 36 4a db 3f 76 8f 67 be
       -1.3538117 -1.4569643 1.7132022 -0.2261332
0001c0 51 65 a0 bf 0c c1 ec 3e d2 c2 f7 3f 95 7c d9 3f
       -1.2530919 0.46241033 1.935633 1.6991144
0001d0 32 56 0b c0 e9 84 00 c0 9d 48 ef bd 62 d2 72 bf
       -2.177136 -2.0081122 -0.11683772 -0.9485227
0001e0 14 06 e0 3f 15 42 23 bf d7 d7 a7 3f 22 c7 f0 3e
       1.7501855 -0.6377271 1.3112744 0.47026926
0001f0 f2 66 8b 3d 8f b8 d5 bf f8 29 d3 bc 43 e0 c3 bf
       0.06806745 -1.6696948 -0.025776848 -1.5302814

model.0.bias f4 [128]
000000 f8 8f 10 bd ef d6 9b bd 69 53 04 bc 58 e7 76 bd
       -0.03529355 -0.07609355 -0.008076527 -0.06027922
000010 27 4e d3 bc 90 5f ac 3b 73 c0 f4 3b 92 8f 7f 3d
       -0.025794102 0.0052604154 0.007469231 0.06239278
000020 86 2d 28 3c d8 e1 97 bc d6 59 59 3d 51 43 d6 3c
       0.01026476 -0.018540308 0.05306419 0.026155146
000030 32 2d a5 bd f0 c4 a5 3b aa 88 9d 3b fd f9 8b 3b
       -0.08065261 0.005058877 0.0048075514 0.0042717443
000040 66 17 c1 bb 5c 6f e5 3c 20 0a 59 bc af 97 80 3c
       -0.005892682 0.028007202 -0.013247043 0.015697328
000050 f3 6f 23 3d 09 82 2f 3d 6a 05 5f 3d b9 d4 9c 3c
       0.039901685 0.04284862 0.054448523 0.019144403
000060 06 7d e7 3a 3a ab 7a bd 01 b4 ae 3d 43 2b bd bc
       0.0017661161 -0.06119845 0.08530427 -0.023091918
000070 38 26 41 3c 0b fc 4a bb 77 b8 85 ba 48 36 9a bd
       0.011788897 -0.0030972983 -0.001020207 -0.075298846
000080 bc 1e 86 3c 4b ca ac 3c 4d 29 86 3d 48 44 99 bd
       0.016372077 0.021092555 0.06550846 -0.07483727
000090 ce d6 21 3c 00 ed 4e 3e 01 f5 c1 ba 61 d0 17 3c
       0.009877874 0.20207596 -0.0014797748 0.00926599
0000a0 f3 86 71 3d 96 55 ba bb 02 90 a7 bc d3 5b b3 3c
       0.05896659 -0.005686472 -0.02045441 0.021894371
0000b0 25 f7 d4 bc 4b cb 8c bb 56 89 d6 bc e3 bf d6 bc
       -0.025996754 -0.0042966953 -0.026188534 -0.026214546
0000c0 80 72 48 bc b5 8e 5d 3c 90 5b 6f bd 32 3a 29 ba
       -0.01223433 0.013522794 -0.05843693 -0.000645551
0000d0 9a b0 2b 3b 30 89 d8 3c 4c c5 a8 3b 3a 3a d6 bb
       0.0026197792 0.026432604 0.0051504727 -0.006537703
0000e0 8c cc 93 3d de b4 0b bc 70 00 b9 bb 3d dd 81 3d
       0.072167486 -0.008527009 -0.005645804 0.06341026
0000f0 d0 3c 9d bc 64 b4 6f 3c 3f 57 ac 3d 99 ab 74 bc
       -0.019194037 0.014630411 0.08415078 -0.01493349
000100 f9 e0 15 bd 33 f3 20 bb 7a c1 93 3c 15 40 b0 3b
       -0.036591504 -0.002455902 0.018036593 0.005378733
000110 5d a4 f4 3c 2e 73 87 3d 0d 98 04 be 96 f1 27 bd
       0.02986353 0.06613766 -0.12948628 -0.04100188
000120 93 12 2a bd ed e9 9d b9 7d 1e 81 3c 4e 3e 33 bd
       -0.04152162 -0.00030119662 0.015761608 -0.04376059
000130 33 b7 3d bc fd 2e 86 3c 6a 58 0e be a6 7b 2b be
       -0.011579323 0.016379828 -0.13900915 -0.16746387
000140 6f 3e 4e 3d 3a df 2b 3d 0b 8a dd 3d 52 62 3f 3d
       0.05035251 0.041960932 0.10817345 0.046724625
000150 3b 8f 57 bb b3 90 00 bc f1 38 70 3d 40 f3 86 3c
       -0.0032891768 -0.007846999 0.058648054 0.016473413
000160 a0 20 36 bd 07 b6 bb 3b 33 1e 0e 3d 85 b9 32 3d
       -0.044464707 0.0057284865 0.03469677 0.043633956
000170 d2 45 db 3d 60 ad 91 bc 40 79 2a 3c 03 f9 a3 3a
       0.107066765 -0.017782867 0.010404885 0.0012510124
000180 9c 9c 43 3e 63 f1 0f bd b8 50 3a bd 63 13 e7 bc
       0.1910271 -0.035142314 -0.045487136 -0.028207486
000190 ff 4d b7 bb 39 85 4e 3d 54 f2 90 3c 83 fd ce 3d
       -0.0055940147 0.05042002 0.017693676 0.10106947
0001a0 42 4f 22 be 7f ee c0 bc dc 1a 99 bc f2 7f 13 bd
       -0.15850547 -0.023551224 -0.018689565 -0.03601069
0001b0 c5 20 4a 3c a5 dd 92 3c 06 10 65 3d f5 8e 5a bb
       0.012336914 0.017927954 0.055923484 -0.003334937
0001c0 61 8f 86 bb e4 7a a1 3c 8a 4e b8 3d 4b 79 45 bd
       -0.0041064476 0.01971192 0.08999355 -0.048211377
0001d0 29 ff ae ba c3 d6 fb bc 32 a7 00 3c f1 60 81 bb
       -0.001335119 -0.030742055 0.0078523625 -0.003948324
0001e0 b6 e4 51 3d a4 83 07 3b fc 87 b5 3c c5 9e 4d bc
       0.051243506 0.002067783 0.022159569 -0.012550061
0001f0 b0 2d 57 3c d1 66 9a 3d e1 c5 a4 bc 37 17 17 3d
       0.013133451 0.07539142 -0.020113887 0.036887374

model.2.weight f4 [128, 128]
000000 a8 20 3f 3e 0e 55 0f 3e 97 d8 54 be e4 66 0b be
       0.18664801 0.1399729 -0.20785747 -0.13613468
000010 e7 99 4a 3e c9 e8 4b be bf 44 a5 bb 2f cc f6 3d
       0.19785272 -0.19913019 -0.0050435956 0.12050664
000020 da 97 45 bc 85 da 94 bd 46 89 3e be 18 56 1b 3e
       -0.01206013 -0.07268242 -0.18607053 0.15169561
000030 d5 31 d1 bd b0 a4 50 bc 68 f1 e4 bd cd 71 8e 3d
       -0.10214583 -0.012734577 -0.11178857 0.069552995
000040 e0 3d 38 3e 24 a9 e5 bd 83 5f 17 3e 4b f1 ce bd
       0.17992353 -0.11213902 0.14782529 -0.10104617
000050 52 77 53 be d7 c6 fb bd 30 d3 b8 bd 02 ba c3 ba
       -0.20650986 -0.12293785 -0.09024656 -0.0014932754
000060 59 ac 04 3e 48 cd 6c bd 6c fd 7d 3d 3c 70 2b 3e
       0.1295637 -0.05781296 0.06200926 0.16742033
000070 2d b9 47 3e bc 10 c8 bd 98 4e bb bd e3 84 d4 bd
       0.19504233 -0.09768817 -0.0914585 -0.10376909
000080 ca ad cc 3c 62 8a 4c 3e 83 6e 1f 3d 16 b5 c6 3b
       0.024985213 0.19974664 0.03892375 0.0060640676
000090 84 aa cd 3c 32 db 1f be 03 ac 1e be 7c 66 f6 3d
       0.025105722 -0.1561096 -0.15495305 0.12031266
0000a0 0a 91 01 3e ae e4 12 3e 11 bd 29 be 15 11 d0 bd
       0.12652984 0.14345047 -0.1657603 -0.10159508
0000b0 f4 3b cc 3d 6e 6f 14 be f8 d4 b4 3d bf 28 61 bd
       0.09972373 -0.14495632 0.08829683 -0.0549705
0000c0 0c 3b 41 3d a0 4c d4 bd 96 3c 6f bd a0 4b 60 3b
       0.047175452 -0.103661776 -0.05840739 0.0034224764
0000d0 81 d8 25 be 71 8d 17 be 99 b2 e1 bd 52 58 fb 3d
       -0.16195871 -0.1480005 -0.11020393 0.12272705
0000e0 10 bc 63 3c a8 4d 01 bd 1d 68 70 3c 84 ea 1d bd
       0.013899818 -0.0315682 0.01467326 -0.03855373
0000f0 ec ad 42 be 58 5b bd bc 76 f7 45 be 5f 94 4b 3e
       -0.19011658 -0.023114845 -0.1933268 0.19880818
000100 58 5e fe bd 56 d7 36 3e a2 6c 50 be 96 72 f8 bd
       -0.124203384 0.17855582 -0.2035394 -0.121312305
000110 eb 16 56 be 44 ac 1c 3e 78 7b 64 bc 89 ab 92 3d
       -0.2090718 0.15300089 -0.013945453 0.07161624
000120 ff ae 51 be 9d 1a 06 be ae 9e 32 be 9e eb 4b 3d
       -0.20476912 -0.1309609 -0.17443344 0.04978525
000130 c7 65 d8 3d 64 03 c5 3c 06 ba 4b be 04 33 37 3e
       0.105662875 0.024049468 -0.19895181 0.17890555
000140 1b 95 3f be 8a 21 30 3e e2 e2 c4 3c b6 58 02 3e
       -0.18709223 0.17200294 0.024033967 0.12729153
000150 29 6e 98 3d 33 36 4a be 67 68 00 3e 37 18 02 be
       0.074428864 -0.19747238 0.12539826 -0.1270455
000160 b5 e4 02 be cc e0 1a be 7a 96 d5 bd f6 73 2f 3e
       -0.12782557 -0.15124816 -0.10429092 0.1713408
000170 71 94 8e 3d 92 b3 01 be 56 1a 21 3e 31 de 45 3e
       0.06961907 -0.12666157 0.15732703 0.1932304
000180 ff 94 97 3a 84 b6 a8 bd 3f 30 04 3e 87 8b e4 bb
       0.001156479 -0.08237937 0.1290903 -0.006974641
000190 f0 b0 e1 bd 2b f0 b8 3d a9 9b 1f 3d 20 50 13 3e
       -0.11020076 0.090301834 0.03896681 0.14386034
0001a0 5c 34 0c bd 62 00 02 3e d1 1b fc 3d f4 9b 28 3d
       -0.03422962 0.12695459 0.12309993 0.041164353
0001b0 51 a9 87 bd 79 62 4e bd fe c9 85 3d 98 a1 f2 3d
       -0.066240914 -0.05038688 0.065326676 0.11847228
0001c0 7d 44 5a 3e 51 91 34 3e a7 a5 0a be 52 26 ff bd
       0.21315189 0.17633559 -0.13539754 -0.12458481
0001d0 8c 95 a8 bd e1 53 3f 3e 0e fe 3b bd 4e 4c f1 3b
       -0.08231649 0.18684341 -0.045896582 0.0073638326
0001e0 a6 2f 98 bd 9f 5e d6 bd 13 12 87 bd 50 64 39 3e
       -0.07430963 -0.10467266 -0.06595244 0.18104672
0001f0 dd 66 24 3e dd 23 1a 3e 90 7d 38 bd ef ac f6 bd
       0.16054864 0.15052743 -0.04504162 -0.12044703
000200 13 d6 4c 3e 41 e3 08 3e aa 9a 2e bd 39 d4 55 be
       0.20003538 0.1336794 -0.042627968 -0.20881738
000210 67 40 cc bd 9f 68 45 3d 0c e1 27 3e 5f 9c 61 3c
       -0.09973221 0.048195478 0.16394442 0.013770192
000220 25 0f 0f 3d 9c 27 52 bc c6 b1 48 be 46 03 40 be
       0.034926552 -0.012826826 -0.19599065 -0.18751249
000230 8f e8 3f 3c 9f 4c 5c bd ec bd 0b 3d 2c e6 56 3e
       0.011713161 -0.05378401 0.03411667 0.20986241
000240 c2 c4 41 be 59 e2 ba 3d 3b 4e c1 3d 5f 87 18 3e
       -0.18922713 0.09125204 0.094387494 0.1489539
000250 2f e7 de 3c 12 fd 20 be b2 00 3c 3e 77 8f 9a 3d
       0.027209846 -0.15721539 0.1835964 0.07546895
000260 3d b3 4f be dc 21 d5 3d 38 8e a9 3d a1 2b 78 bd
       -0.20283218 0.10406849 0.08279079 -0.060588483
000270 d1 3d 8e 3d fd 18 14 3e ef 55 08 be 4e 8e 30 be
       0.06945384 0.14462657 -0.13314031 -0.17241785
000280 f9 2d 5e 3e 96 ec 4a 3d 7a 33 2b 3d 20 80 10 3e
       0.21697225 0.049542032 0.04179714 0.14111376
000290 9d f7 4e bd b4 3a 55 be 72 a2 22 3e d2 c0 79 3d
       -0.05052911 -0.20823175 0.1588228 0.060974903
0002a0 9c dc 43 be 59 8f 3e be bd e5 41 3e 2d 51 7e bd
       -0.19127125 -0.1860937 0.18935294 -0.062089134
0002b0 b5 96 ab bd 84 3a b8 3d 52 88 8e 3d 67 a9 96 bd
       -0.083783545 0.08995536 0.06959595 -0.0735653
0002c0 3e dc a8 3d 0b 0b 55 3d af ab 15 3e 1e 47 21 be
       0.08245133 0.052012485 0.14616273 -0.15749785
0002d0 02 85 0d be 9c 6b 09 3e f5 38 1e 3d 98 9a 3e bd
       -0.1382027 0.13419956 0.038628537 -0.04653415
0002e0 60 06 75 bd d8 88 3e be 69 4a 35 3e dc 98 d7 3d
       -0.059820533 -0.18606889 0.17704166 0.105272025
0002f0 88 1e 20 be 85 00 f1 bd e7 78 0b 3e df db 3c be
       -0.15636647 -0.11767677 0.1362034 -0.18443249
000300 61 c5 2c 3e b4 48 50 3c ab cc b4 3d b9 dc 48 bc
       0.16872169 0.012712646 0.088281 -0.012259656
000310 6b f0 bb 3d f7 50 d8 bc 50 8d 52 be 8d b9 4f 3e
       0.091767155 -0.026405795 -0.20561719 0.20285626
000320 cb f2 f5 3d 69 e8 56 3e d1 af 94 3c a1 9a 3e 3e
       0.120092 0.20987095 0.018150242 0.18613674
000330 0a aa 1c 3e 35 cc 93 bd 1d 8e ef 3d 90 6c 1c 3e
       0.1529924 -0.07216684 0.11697028 0.15275788
000340 cd 28 59 bb ec 3f 30 3e 27 17 9d 3d 08 f2 0e 3e
       -0.0033135891 0.17211884 0.076704316 0.13959515
000350 31 0a 1c be c3 d6 72 3d e9 7e cf 3d a1 18 e0 3c
       -0.15238263 0.059286844 0.10131628 0.027355494
000360 9e a6 c1 3d 41 21 49 3e ce 5c d8 3d a7 b4 58 be
       0.09455608 0.19641592 0.10564576 -0.21162663
000370 b8 25 3a bd c1 16 2d 3e 0e fe 33 be 3a c4 dc 3d
       -0.045446128 0.16903211 -0.17577383 0.10779615
000380 f0 a9 e2 3c ac 53 f0 3b 0c 20 67 bd 45 48 f7 ba
       0.027668923 0.007334193 -0.056427047 -0.0018866142
000390 a7 fa 28 bc c9 05 76 bd b6 b5 4d 3e 2f 5b d3 3d
       -0.010313666 -0.06006411 0.20088848 0.10320126
0003a0 2a 38 0c be c4 88 0c 3e 8b d9 8a 3d 5b 9e a0 bd
       -0.136933 0.13724047 0.06779774 -0.07842704
0003b0 26 4d 19 be a7 0a 55 3e 1e 89 1d bd 49 34 3a be
       -0.14970836 0.20804845 -0.038460843 -0.18184008
0003c0 f5 2b 79 bd a1 a5 93 3d 98 cf 9d 3d 5e 8e ce 3c
       -0.060832936 0.072093256 0.07705611 0.02521437
0003d0 3f b7 51 3e 0a 5f 2e be 52 9f 08 3e 51 fc 09 be
       0.20480059 -0.17028442 0.13342026 -0.13475157
0003e0 de 25 57 3e 7d 40 c7 3d 20 d9 2e 3e 15 d8 24 3d
       0.21010539 0.09729097 0.17075014 0.040245134
0003f0 f1 5c 15 3d f3 da 64 3b 26 fc 0a bd a5 88 34 3e
       0.03646559 0.0034920543 -0.033931874 0.17630251

model.2.bias f4 [128]
000000 49 4b 18 bc ca 60 f4 bb 3a ad d8 3c b2 c1 06 bd
       -0.009295293 -0.007457827 0.026449788 -0.032899566
000010 09 8f 9d 3d 76 19 87 3c 29 27 91 bb 65 40 25 3d
       0.076932974 0.016491633 -0.004429717 0.040344615
000020 e0 80 78 bc 47 d3 8e 3c 39 c7 dc 3b fb 0c 9e 3b
       -0.015167445 0.01743473 0.0067376164 0.0048233247
000030 1b a2 ac 3c 53 14 13 3c 73 cf 0a 3c 8c 86 d9 ba
       0.021073392 0.008977014 0.008472311 -0.0016595884
000040 07 ac fd bc dc c6 d2 3c 4d 10 82 3c 39 c2 f8 bc
       -0.030965818 0.02572959 0.015876913 -0.03036605
000050 10 90 6c bd f4 48 14 3d 4c 42 ae bc 3b 03 5e bd
       -0.057754576 0.036202386 -0.021271847 -0.0542023
000060 c9 d4 17 3d 3f 8b b0 3d c8 06 8a bb 22 cf 72 bc
       0.037068162 0.08620309 -0.004212234 -0.014819892
000070 e8 ff 4e 3a 3c d1 76 3c 3e 98 4d 3d 52 e2 01 be
       0.00078964094 0.015064534 0.050194018 -0.1268399
000080 a9 83 0c bc 84 34 c7 3b 84 f2 ef 3c 29 08 aa bc
       -0.008576312 0.0060792584 0.029290445 -0.020755844
000090 42 f4 60 3c 03 38 67 3b 53 cf 37 bd c8 80 f8 3c
       0.013730111 0.0035281188 -0.044875454 0.030334845
0000a0 5d d8 1d bc 69 8f c0 bb 97 55 02 bd da dd 82 bc
       -0.009634105 -0.005876471 -0.031819906 -0.015974928
0000b0 9a 7b 1d 3d 38 76 8f bb 12 ff 11 3d 4d 9d 96 3c
       0.038447954 -0.0043781064 0.035643645 0.018385554
0000c0 9d 3b 9f 3c 25 43 9a 3a 87 6a c9 3d 6d cb 2b bd
       0.019437606 0.0011769278 0.098347716 -0.04194205
0000d0 28 0c 19 3d 08 de 53 bb 8c c2 f1 ba 95 72 ac bd
       0.03736511 -0.0032328386 -0.001844482 -0.08420292
0000e0 6c c2 fc 3c 0f a8 d5 bc 08 80 5d 3d fd 1f da 3b
       0.030854426 -0.026081113 0.05407718 0.0066566453
0000f0 73 58 cc bc 1f 25 ce 3c 2d 30 10 bd aa b3 62 3c
       -0.02494452 0.025164185 -0.035202194 0.013836781
000100 0a d9 05 3d b1 cf 8c 3b 69 87 9d bb ba 13 50 3d
       0.032677688 0.0042972197 -0.004807402 0.050800063
000110 ef fd 46 3d db 70 04 3e e0 96 9c 3b 55 c3 14 3d
       0.048582014 0.12933676 0.004778728 0.036319096
000120 6f ce 35 3c 6c 2d 5e bd db 43 4c 3d 64 90 b7 3c
       0.011096581 -0.054242536 0.0498694 0.022407718
000130 89 3d c2 bd 9b b1 a1 3c e6 c5 81 bc cf 0f f8 bb
       -0.09484393 0.01973801 -0.015841436 -0.007570244
000140 82 c5 4c 3d 09 c2 19 3c 59 8d 37 bc 6e 28 23 3d
       0.049993046 0.0093846405 -0.0112031335 0.03983348
000150 de e4 8e 3c 56 0e c1 bb dc 7a 3e bd dd c9 a9 3c
       0.017443117 -0.0058916016 -0.046503887 0.020726139
000160 07 94 88 3b 80 82 b0 3c f5 ae 95 bd 21 c4 f0 3c
       0.004168037 0.021546602 -0.07308761 0.029390397
000170 72 3e f9 bb 21 13 60 3c b4 c9 be bd 5f 24 41 3d
       -0.007606321 0.013676436 -0.093158156 0.047153827
000180 c1 6b b8 3c 5f 6d 00 bd ff 56 46 bc 93 b7 00 3e
       0.022512319 -0.031354304 -0.012105702 0.12570028
000190 3c 3a db bc c2 53 26 bc 99 e5 1f 3d 59 47 cc 3c
       -0.026761167 -0.010151805 0.03903732 0.024936365
0001a0 aa b9 a4 3d 81 2a 48 bc 6f d6 32 bd 56 da 17 ba
       0.08043225 -0.012217165 -0.04366153 -0.00057927275
0001b0 d4 a6 be bb 7a cb 07 bd b8 26 8d 3c 0f 0a b7 bc
       -0.0058182273 -0.033153035 0.017230377 -0.022343663
0001c0 ac 34 04 bd f0 32 d1 3c a6 cf 64 3b 6b d9 95 3d
       -0.032276794 0.025536984 0.0034913807 0.0731686
0001d0 04 52 ae 3c a0 59 76 bb 22 13 17 bd 4f f2 19 3d
       0.021279342 -0.0037590042 -0.03688348 0.0375846
0001e0 44 a7 41 bc 7c 76 0b 3d d2 65 60 3d 77 73 7d bc
       -0.011819664 0.034048542 0.054784603 -0.0154694235
0001f0 74 40 b5 3c 76 c7 00 bd 50 ed d7 bb 5d ff 63 bd
       0.02212546 -0.03144022 -0.006589569 -0.055663455
