save/DON.pth (torch, 427648 bytes, 10 tensors)

model.0.weight f4 [128, 100]
0	0xbd771a63	-0.0603279
1	0xba2614a9	-0.0006335476
2	0xbe74fe9d	-0.23925252
3	0x3e57495e	0.21024081
4	0x3e5bd2ac	0.21467084
5	0x3e129894	0.14316016
6	0xbd2d3f16	-0.04229649
7	0x3e20d92f	0.15707849
8	0xbe064c91	-0.13115145
9	0x3e4f77bd	0.2026052
10	0xbe3c2729	-0.18374313
11	0xbe51257e	-0.20424458
12	0xbd2579f1	-0.040399496
13	0x3e6ae750	0.22939801
14	0xbe0ce76c	-0.13760155
15	0xbe14746a	-0.14497533
16	0x3e48b1e4	0.1959911
17	0xbccf2f7a	-0.025291193
18	0xbd85ebbe	-0.06539105
19	0x3cd9593d	0.02653181
20	0x3e296284	0.16541487
21	0xbe0d8894	-0.13821632
22	0x3e09bfd0	0.13452077
23	0xbd031419	-0.03200159
24	0xbe0e2f6e	-0.1388528
25	0x3da40cea	0.08010276
26	0xbe26abe9	-0.16276516
27	0xbd155a20	-0.036462903
28	0x3e76400e	0.24047872
29	0x3dc22be7	0.0948103
30	0xbe00bce7	-0.1257206
31	0x3dc54894	0.09632984
32	0x3df23fe1	0.1182859
33	0x3e52db0d	0.20591374
34	0xbe673d7b	-0.22582047
35	0xbe5b53a1	-0.2141862
36	0x3dcff240	0.101536274
37	0x3e580b3e	0.21098039
38	0xbd99e8bf	-0.07515096
39	0xbe159189	-0.14606299
40	0x3e007bb2	0.12547186
41	0x3d674a91	0.056467596
42	0xbe1f2651	-0.1554196
43	0x3db1b8ac	0.086778015
44	0x3e586e90	0.21135926
45	0xbe6be96c	-0.23038262
46	0xbdc49ace	-0.09599839
47	0xbe6c695b	-0.23087065
48	0x3da84770	0.082167506
49	0x3c5de24b	0.013542722
50	0xbe842b62	-0.25814348
51	0x3e1e3d7c	0.15453142
52	0xbc2ea1f2	-0.010658728
53	0xbca0351f	-0.01955658
54	0xbe5692f0	-0.2095449
55	0xbe069ee2	-0.13146546
56	0xbbaf7809	-0.0053548855
57	0x3e1c8434	0.15284806
58	0x3e163288	0.14667714
59	0xbe35b84e	-0.17746088
60	0x3d30374b	0.04302148
61	0x3d837519	0.06418819
62	0xbd594c67	-0.05305138
63	0xbcc33266	-0.023827743
64	0x3e0229d3	0.12711267
65	0x3cb89a86	0.02253462
66	0x39f73c87	0.00047156608
67	0xbd85fe12	-0.06542601
68	0xbdff36a3	-0.12461593
69	0x3d83f5b8	0.064433515
70	0xbd1cbf50	-0.038268387
71	0xbd8046a7	-0.06263476
72	0x3d978d56	0.074000046
73	0x3d9acd5b	0.075587
74	0x3cae1e00	0.02125454
75	0xbe3d1201	-0.18463899
76	0x3d14a184	0.036286846
77	0x3d08f9e3	0.033441436
78	0x3da87db9	0.08227105
79	0x3e244384	0.1604138
80	0x3e46985f	0.19394062
81	0xbd0004ba	-0.031254508
82	0xbe87efc5	-0.26550117
83	0x3e3e6232	0.18592146
84	0x3db72e57	0.089443855
85	0xbdf22c19	-0.11824817
86	0x3e544e3a	0.20732966
87	0x3dc83ed9	0.09777612
88	0xbe10a232	-0.14124373
89	0xbdb2da84	-0.08733085
90	0x3d1a63e5	0.037692923
91	0xbe610b57	-0.21976982
92	0x3e07743e	0.13227937
93	0x3d634b89	0.055491958
94	0xbdc08987	-0.09401231
95	0x3c2efe49	0.0106807435
96	0x3e2e0845	0.16995342
97	0xbe18c804	-0.1492005
98	0x3d36a19d	0.04458772
99	0x3df0145d	0.11722634
100	0x3d3db36d	0.046313692
101	0x3e23941a	0.15974465
102	0x3dcdf174	0.10055819
103	0xbd957ae0	-0.07298827
104	0xbe74cb0e	-0.23905584
105	0x3cb02d15	0.021505872
106	0x3def8b88	0.11696535
107	0x3dc2f215	0.0951883
108	0x3e183330	0.14863276
109	0x3d42b2d6	0.047533832
110	0xbe4a654b	-0.19765203
111	0x3e0f207d	0.13977237
112	0xbe2197ec	-0.1578061
113	0xbd46b369	-0.048510943
114	0xbcf8ffbd	-0.030395383
115	0xbd57231b	-0.052523714
116	0xbc75d3b7	-0.01500409
117	0xbd8ca4c9	-0.06867368
118	0xbe530661	-0.20607902
119	0x3d17c396	0.03705176
120	0xbe4e3ddc	-0.20140785
121	0x3d876453	0.06610932
122	0xbe45f53d	-0.19331832
123	0x3d84c198	0.064822376
124	0x3d9689e2	0.07350518
125	0x3e1e92a8	0.15485632
126	0xbd5cc315	-0.053896982
127	0x3e5132c1	0.20429517
128	0xbc413a78	-0.011793725
129	0x3e17f14d	0.14838143
130	0xbd4685c0	-0.048467398
131	0xbe644341	-0.2229128
132	0xbdba5920	-0.090990305
133	0xbd9b0643	-0.07569554
134	0xbe5ffff7	-0.21874987
135	0x3c8136b3	0.015773153
136	0x3e0df912	0.13864544
137	0xbcd89131	-0.02643642
138	0x3d99bd62	0.07506825
139	0x3e1d0060	0.15332174
140	0x3e2e2dd2	0.17009667
141	0xbe2116a0	-0.15731287
142	0x3e182d59	0.14861049
143	0x3c36c57a	0.0111554805
144	0xbe1b3347	-0.1515628
145	0x3dab01e3	0.08349969
146	0x3e531273	0.20612507
147	0xbe81a2f7	-0.25319645
148	0x3e294116	0.16528735
149	0x3e47612f	0.19470666
150	0x3a95e0b0	0.001143476
151	0x3e3d96c9	0.18514551
152	0xbe8b4da7	-0.27207682
153	0xbe527ea2	-0.20556119
154	0xbdb1d266	-0.086827084
155	0xbe5dca48	-0.21659195
156	0x398442ad	0.0002522668
157	0xbe20c036	-0.15698323
158	0x3da1e24a	0.07904489
159	0x3cd00da4	0.02539713
160	0x3e31af37	0.17351995
161	0xbe3f5cb9	-0.18687715
162	0x3d157420	0.0364877
163	0xbd101eee	-0.035185747
164	0x3de1d726	0.110273644
165	0x3e38acdb	0.18034689
166	0xbde80302	-0.11328699
167	0x3cbbcbf3	0.022924399
168	0x3d7d06da	0.061774112
169	0xbdb1f85c	-0.08689949
170	0x3e61f728	0.22066939
171	0x3e58d55c	0.2117514
172	0xbe68f960	-0.22751379
173	0xbd304ce4	-0.04304208
174	0xbcd3c361	-0.02585
175	0xbe1435dc	-0.1447367
176	0xbb706b45	-0.0036685031
177	0x3e3090a5	0.17242678
178	0x3e3c5530	0.18391871
179	0x3e6a1f6a	0.22863546
180	0xbd4e9249	-0.050432477
181	0xbe46a72d	-0.1939971
182	0x3cb3bd5c	0.02194088
183	0x3e654065	0.22387846
184	0xbe268518	-0.16261709
185	0xbd766695	-0.060156424
186	0xbde83def	-0.11339938
187	0x3d5907ad	0.052985836
188	0x3daab2b9	0.0833487
189	0x3e3d82e6	0.18506965
190	0x3d613d38	0.054990023
191	0x3e274a47	0.16336928
192	0x3e2a7724	0.16647011
193	0xbdb368b3	-0.08760204
194	0x3cfa2d55	0.030539194
195	0x3df326dd	0.11872647
196	0x3de30330	0.11084592
197	0xbe0b9d2c	-0.13634175
198	0xbe6967df	-0.2279353
199	0xbe28a145	-0.1646777
200	0x3e24ab1f	0.16080903
201	0xbe0a83ad	-0.13526793
202	0xbe07ff44	-0.1328097
203	0x3e49e151	0.19714858
204	0xbe583daf	-0.2111728
205	0xbe4d4a9d	-0.20047994
206	0x3de423d7	0.111396484
207	0x3cff706d	0.031181538
208	0x3e228749	0.1587192
209	0xbe1306e3	-0.14358096
210	0xbd1f71ed	-0.038927007
211	0x3e526c61	0.20549156
212	0xbe2379b3	-0.15964393
213	0xbe4ad78e	-0.1980879
214	0x3d5e4249	0.054262433
215	0xbced9e59	-0.02900617
216	0xbe504a31	-0.20340802
217	0x3d9d3aea	0.076772526
218	0x3e5f5aaf	0.21811937
219	0x3e397869	0.18112339
220	0x3d36237e	0.04446744
221	0x3e4d28eb	0.2003514
222	0xbe66b3d7	-0.22529541
223	0x3cb2c6a1	0.02182323
224	0xbd2b71e2	-0.041856654
225	0x3e5a3698	0.21309888
226	0xbe501727	-0.20321332
227	0x3e556235	0.20838244
228	0xbbac0c60	-0.0052504987
229	0xbe0f31dc	-0.13983864
230	0xbcd5d1e4	-0.02610106
231	0xbe130e32	-0.14360884
232	0x3e40b045	0.18817241
233	0xbe4bea43	-0.19913583
234	0x3e0d01d7	0.13770233
235	0x3dfa6f0d	0.122282125
236	0xbd968d42	-0.073511615
237	0x3d5f2ea4	0.05448784
238	0x3cc5472f	0.024081795
239	0xbd29a21a	-0.041414358
240	0xbe68f048	-0.2274791
241	0x3d28d2c3	0.041216623
242	0x3e0510f3	0.12994747
243	0x3e704118	0.23462331
244	0x3e63088a	0.22171226
245	0xbe6f712f	-0.2338302
246	0x3e57af84	0.21063048
247	0xbe41d1ee	-0.18927738
248	0xbd61ad69	-0.055097017
249	0x3e12e732	0.14346007
250	0xbd6f208a	-0.05838064
251	0xbe4834da	-0.19551411
252	0xbde5ad5b	-0.112147056
253	0xbd5d2160	-0.053986907
254	0xbe809803	-0.25115976
255	0x3db66f74	0.08907977

model.0.bias f4 [128]
0	0x3c736b61	0.014857144
1	0xbcc752e9	-0.024331527
2	0xbcd68fb8	-0.026191577
3	0x3a2e4099	0.0006647199
4	0x3cf46300	0.029832363
5	0xbd824b1e	-0.06361984
6	0x3cc652a0	0.02420932
7	0x3d09b702	0.033621795
8	0xbbf0c946	-0.0073482124
9	0x3d3fe64e	0.046850495
10	0x3c06b69d	0.008222249
11	0x3d50c2f5	0.050967176
12	0xbc16c077	-0.009201161
13	0x3c883a8e	0.016629484
14	0xbd2763e4	-0.040866747
15	0xbcd5a0a7	-0.026077582
16	0xbc84b653	-0.01620022
17	0xbbbccc11	-0.0057616313
18	0xbbd5e595	-0.0065276125
19	0x3d3fd8a9	0.046837483
20	0x3d7f605c	0.062347755
21	0x3ced28c4	0.028950103
22	0x3d596b98	0.053081125
23	0x3d17fb92	0.03710515
24	0x3bf7c0e2	0.007560835
25	0xbd82c9f2	-0.06386174
26	0x3c78ed88	0.015193351
27	0xbbf89570	-0.0075861737
28	0xbd88cb41	-0.066793926
29	0xbd19e56c	-0.03757231
30	0xbd0faae7	-0.035075095
31	0xbc6b194a	-0.014349291
32	0xbd542c3f	-0.05180001
33	0x3caa3798	0.020778462
34	0xbcc436b7	-0.023951871
35	0x3b45dbe9	0.003019089
36	0xbbe645c9	-0.007027362
37	0x3ccb4176	0.024811488
38	0xbcc03536	-0.023462873
39	0x3d23f1dd	0.04002558
40	0x3caa1c5d	0.020765478
41	0x3d363718	0.044486135
42	0x3d49b85a	0.049248077
43	0x3c857ee2	0.016295854
44	0x3dcb4d2b	0.09926828
45	0x3b942cbc	0.0045219343
46	0x3db083eb	0.08618911
47	0x3cc80212	0.02441505
48	0xbd1b81d0	-0.037965596
49	0xbcabb3ee	-0.02095982
50	0xbcc5be18	-0.024138495
51	0xbc800599	-0.01562767
52	0x3dafcf02	0.085844055
53	0xbc47422d	-0.012161774
54	0x3da78beb	0.08180984
55	0x3bea25e9	0.0071456325
56	0x3c998879	0.018741833
57	0x3d3c2e96	0.045942865
58	0x3cdee6c6	0.02720965
59	0x3d027d7b	0.03185795
60	0xbbd5715f	-0.006513759
61	0xbab44895	-0.0013754541
62	0x3d231c9c	0.039822206
63	0x3da7354f	0.08164465
64	0x3dc274a8	0.09494907
65	0x3ca751a1	0.020424666
66	0xbdc5512c	-0.09634623
67	0x3b849712	0.0040463293
68	0x3c996dd9	0.018729137
69	0x3cb51e12	0.022109065
70	0xbda4a2bd	-0.08038852
71	0x380c8775	3.3504755e-05
72	0x3c6d6721	0.01448992
73	0xbad1344b	-0.0015961019
74	0xbc81199f	-0.015759287
75	0xbc2f31b7	-0.010693005
76	0xbd01622d	-0.03158777
77	0xbc723d8b	-0.014785181
78	0x3cddf222	0.027092997
79	0xbd87b905	-0.066270865
80	0x3caae734	0.0208622
81	0xbd475a83	-0.048670303
82	0xbd188916	-0.03724011
83	0x3caf9c4d	0.021436835
84	0x3af250ab	0.0018487176
85	0xbcbf11f9	-0.023324
86	0xbd49327d	-0.049120415
87	0x3c4619a1	0.012091071
88	0x3d21ee79	0.039534066
89	0xbbed9f11	-0.007251628
90	0xbba5f590	-0.0050646737
91	0x3cc25733	0.02372322
92	0x3af944e6	0.0019017726
93	0xbc360cc5	-0.011111443
94	0xbd8c542f	-0.06851994
95	0xbd360a0b	-0.04444317
96	0xbd64b87d	-0.055840004
97	0xbd0b4d9f	-0.034009572
98	0xbd3ba721	-0.045813683
99	0x3a0f7e2e	0.00054738193
100	0xbd61b178	-0.055100888
101	0x3d16b38c	0.036792323
102	0xbcd96baa	-0.026540596
103	0xbce4e4b7	-0.027941091
104	0x3b82d25e	0.003992363
105	0xbc1ad924	-0.009451184
106	0x3c2945dc	0.010331597
107	0xbdc2474b	-0.09486254
108	0xb9dbb3f9	-0.00041905025
109	0x3c1852e8	0.00929711
110	0x3ca75d21	0.02043015
111	0x3c929214	0.017891921
112	0xbd317995	-0.04332884
113	0x3ca6c7cc	0.020358942
114	0xbdcbe515	-0.09955803
115	0xbc9e93cf	-0.01935759
116	0xbcbdafbf	-0.023155091
117	0x3d0a2218	0.03372392
118	0x3d7fe57c	0.062474713
119	0x3d98670e	0.07441531
120	0x3c2740dc	0.010208335
121	0x3c116197	0.008873365
122	0xbd816cda	-0.0631959
123	0xbc1dc5d3	-0.0096296845
124	0x3bffd4af	0.0078073363
125	0xbce2721e	-0.027642306
126	0x3d7e1ede	0.062041156
127	0x3c18cbb8	0.009325914

model.2.weight f4 [128, 128]
0	0x3e4d17da	0.2002863
1	0x3de9b65a	0.11411734
2	0xbd1aac6a	-0.037762083
3	0xbd2472e5	-0.040148634
4	0xbda0982a	-0.07841523
5	0xbd29da54	-0.04146798
6	0x3db27043	0.087128185
7	0x3d8ab230	0.06772268
8	0xbe147482	-0.14497569
9	0xbdad3752	-0.08457817
10	0xbe08664c	-0.13320273
11	0xb9a4b824	-0.00031417713
12	0x3d2f1e51	0.04275352
13	0xbd0ddafc	-0.034632668
14	0xbcdd1413	-0.026987111
15	0x3e0ec330	0.13941646
16	0x3e3e6563	0.18593363
17	0xbe015958	-0.12631738
18	0x3ce7c9ae	0.02829441
19	0xbe0cd6a8	-0.1375376
20	0x3e088f27	0.13335858
21	0x3e00ef78	0.1259135
22	0x3e326d4e	0.17424509
23	0x3e45ef28	0.19329512
24	0xbd966e55	-0.07345263
25	0xbc904712	-0.017612014
26	0xbe1ffbd3	-0.15623407
27	0x3dde7ea3	0.10863998
28	0xbdf14698	-0.11781043
29	0xbdc26dc1	-0.0949359
30	0xbdfe2167	-0.12408715
31	0x3e34a4b4	0.17640954
32	0xbe1b5dbb	-0.15172474
33	0x3e379267	0.17926942
34	0xbe70bdaf	-0.23509859
35	0x3d68e675	0.056860406
36	0x3dc486a3	0.095959924
37	0xbe0daa22	-0.13834432
38	0xbde14714	-0.10999885
39	0xbde16b30	-0.110067725
40	0x3e1e3d12	0.15452984
41	0xbe1da721	-0.15395786
42	0x3e38e551	0.18056227
43	0xbde7f85d	-0.113266684
44	0xbe2bf9aa	-0.16794458
45	0xbe28954f	-0.16463207
46	0x3dd679b5	0.104724325
47	0x3d8160bc	0.06317279
48	0xbe6907c6	-0.22756872
49	0x3c85fa50	0.01635471
50	0xbe3cbab7	-0.18430601
51	0x3d5f79f2	0.054559655
52	0xbe16b54e	-0.147176
53	0xbe4d3eda	-0.20043507
54	0x3d2ea655	0.042639095
55	0xbdf97024	-0.12179592
56	0x3cb7fbef	0.022458998
57	0x3d992a94	0.07478824
58	0x3d039af5	0.0321302
59	0x3e5e9059	0.21734752
60	0x3d7a4b5d	0.06110703
61	0x3dade234	0.084904104
62	0x3e033a8d	0.12815304
63	0x3e3f5f78	0.18688762
64	0xbded838f	-0.115973584
65	0xbdae439b	-0.085089885
66	0xbddb8f75	-0.10720722
67	0x3d9f0058	0.077637374
68	0x3e4c1152	0.19928482
69	0xbda9d3e3	-0.08292367
70	0xbe4846fb	-0.19558327
71	0x3dc22371	0.09479416
72	0x3cbb3b13	0.022855317
73	0xbc19a45a	-0.009377563
74	0xbd4ef5fa	-0.05052755
75	0x3c8fba0e	0.017544772
76	0xbe5462c8	-0.20740807
77	0xbe0c7722	-0.1371732
78	0x3e16919a	0.1470398
79	0xbe75ade7	-0.2399212
80	0xbdf70820	-0.120620966
81	0x3e7ac8ad	0.24490614
82	0x3d08262e	0.033239536
83	0xbe395f2b	-0.1810271
84	0xbd56006d	-0.0522465
85	0x3caeed4b	0.021353384
86	0x3e12674a	0.14297214
87	0xbd9c957e	-0.07645701
88	0x3e0cbb37	0.13743292
89	0x3d11fcec	0.035641596
90	0x3dcfff16	0.10156076
91	0xbc5a2dc5	-0.013316576
92	0x3e2b43e6	0.1672512
93	0x3e2de9c9	0.16983713
94	0xbe1686cd	-0.1469986
95	0xbc7b29c1	-0.015329779
96	0xbd6285df	-0.05530345
97	0x3d0d2f74	0.034469083
98	0x3ce10c13	0.027471578
99	0x3e463fe5	0.19360311
100	0x3dde7585	0.10862259
101	0x3d27c616	0.040960394
102	0x3da9c62a	0.0828975
103	0x3d88b58f	0.066752546
104	0x3e2c352b	0.16817157
105	0x3e3eef0e	0.1864588
106	0x3c838263	0.016053384
107	0x3cd8ace5	0.02644963
108	0xbd91f7fd	-0.07127378
109	0xbdbce795	-0.09223858
110	0xbde3afec	-0.11117539
111	0x3e115d40	0.14195728
112	0x3d55414e	0.052064233
113	0x3df4b4ed	0.11948571
114	0xbe1faa1e	-0.15592238
115	0xbdfdcdd4	-0.12392774
116	0x3de00709	0.10938842
117	0xbe56d8fe	-0.20981213
118	0xbd3e2cb4	-0.04642935
119	0x3e4967eb	0.19668548
120	0x3db0a5fe	0.086254105
121	0x3ca6c308	0.02035667
122	0x3ddaf137	0.10690539
123	0xbe4023f7	-0.1876372
124	0x3e3b96c7	0.18319236
125	0xbd57614c	-0.052583024
126	0xbddc76d0	-0.10764849
127	0x3e340fae	0.17584106
128	0x3db038b3	0.086045645
129	0x3ccb6327	0.024827553
130	0x3c5b2333	0.013375091
131	0xbda9756d	-0.0827435
132	0xbde05868	-0.10954362
133	0x3ddfb694	0.10923496
134	0x3e3be9b9	0.18350877
135	0x3dbd9d83	0.092585586
136	0xbe195853	-0.149751
137	0xbdef7943	-0.11693051
138	0x3d856158	0.065127075
139	0xbd7927f1	-0.060829107
140	0x3c92587f	0.017864464
141	0xbd846cdd	-0.064660765
142	0xbe43f4fd	-0.19136424
143	0x3d1b277d	0.037879456
144	0x3d7240ab	0.059143703
145	0xbdadf99d	-0.084948756
146	0x3dadae96	0.08480565
147	0xbd834d03	-0.06411173
148	0x3e0dfba7	0.13865529
149	0x392dbfd5	0.00016570029
150	0xbd2b4171	-0.041810457
151	0xbe3ed867	-0.18637238
152	0xbda44049	-0.08020074
153	0x3e3e0a68	0.18558657
154	0x3d9429d4	0.072345406
155	0xbe03cc42	-0.12870887
156	0xbe017473	-0.12642078
157	0x3e3a1588	0.18172276
158	0x3e3fed0b	0.18742768
159	0x3dfb2c6d	0.12264333
160	0xbd9a3fa7	-0.07531672
161	0x3d1e4264	0.038637534
162	0xbdfbbd5f	-0.12291979
163	0xbe5d36e5	-0.21602972
164	0x3e0a0d51	0.13481642
165	0x3e193cd1	0.14964606
166	0x3cb2121c	0.02173715
167	0xbe227480	-0.15864754
168	0x3da3bb2f	0.07994687
169	0xbdbe7fe1	-0.09301735
170	0xbdabc4bd	-0.08387134
171	0xbd65e0ae	-0.056122474
172	0x3e314897	0.17312847
173	0xbd630344	-0.055423036
174	0x3cbc9cdb	0.023024013
175	0xbe1c43e8	-0.15260279
176	0xbe3ad962	-0.18246987
177	0x3e287d5e	0.16454074
178	0x3dfbb88c	0.12291059
179	0x3c23fbc5	0.010008757
180	0x3e42b877	0.1901568
181	0x3d8ff8de	0.070298895
182	0xbe189371	-0.14899994
183	0xbe0d2da7	-0.13786946
184	0x3e2c8a07	0.16849528
185	0x3e412875	0.1886309
186	0xbc01272d	-0.007882875
187	0x3d11ad0d	0.035565425
188	0x3e366f49	0.1781589
189	0x3e05777b	0.1303386
190	0x3e2cab78	0.16862285
191	0x3e096f14	0.13421279
192	0xbdf0b1bc	-0.1175265
193	0xbe079f25	-0.13244303
194	0x3db2b46e	0.087258205
195	0xbd4a70af	-0.04942387
196	0xbe0622ec	-0.13099259
197	0x3de46c66	0.11153488
198	0xbdfc886c	-0.12330708
199	0x3da016db	0.07816859
200	0xbddc5e09	-0.10760123
201	0xbdfd6f99	-0.12374801
202	0x3de054f8	0.109537065
203	0x3c13955d	0.009007779
204	0x3e3e3c88	0.18577778
205	0x3e5876d9	0.21139087
206	0xbe0b642c	-0.13612431
207	0xbe0e950d	-0.13924046
208	0xbd4b5a53	-0.049646687
209	0xbda17c88	-0.078850806
210	0xbd094afe	-0.033518784
211	0x3dd10a38	0.10207027
212	0x3c5d993b	0.0135253025
213	0xbdfdf14a	-0.12399538
214	0xbe0aad2c	-0.13542622
215	0x3d2302b6	0.039797507
216	0x3c84c5ad	0.01620754
217	0xbdad8e94	-0.0847446
218	0xbe61165c	-0.21981186
219	0xbe464849	-0.19363512
220	0x3e0c21a2	0.13684705
221	0x3de2d4cd	0.11075745
222	0x3c5f8261	0.013641925
223	0x3dd23413	0.102638386
224	0x3d451fc7	0.04812601
225	0x3e288faf	0.16461061
226	0xbde69754	-0.11259332
227	0x3e6f6258	0.23377359
228	0x3da72be3	0.081626676
229	0x3d8082e3	0.06274965
230	0xbdd1ce26	-0.10244398
231	0xbdf01a6d	-0.1172379
232	0x3d737ab2	0.059443183
233	0x3e39c9d2	0.18143395
234	0x3dbdc345	0.0926576
235	0xbdf62168	-0.120180905
236	0xbe371763	-0.17880015
237	0xbd1b0d22	-0.03785432
238	0xbd032279	-0.032015298
239	0x3e3c10d8	0.183658
240	0x3dae81f5	0.08520881
241	0xbe0467ea	-0.12930265
242	0x3e04410b	0.12915437
243	0xbe339d63	-0.17540507
244	0x3d93749c	0.07199976
245	0x3c5c9f27	0.013465679
246	0xbe212b62	-0.15739205
247	0xbdcec45b	-0.100960456
248	0x3db96f13	0.09054389
249	0xbdc0b5f3	-0.09409704
250	0x3e1b9c4e	0.15196344
251	0xbcb7ad92	-0.022421632
252	0xbbce1bee	-0.0062899506
253	0x3dfeff58	0.12451047
254	0xbe4d0ee6	-0.20025215
255	0x3e3c1ac3	0.18369584

model.2.bias f4 [128]
0	0x3da0f0d3	0.078584336
1	0x3d5b898c	0.05359797
2	0xbda95bdd	-0.08269475
3	0xbd09f825	-0.033683915
4	0xbc3b9236	-0.011448434
5	0xba8f40a0	-0.0010929294
6	0x3da96bfe	0.08272551
7	0xbd823e13	-0.06359496
8	0xbcb9ae3b	-0.022666087
9	0x3c82d53a	0.015970815
10	0xbc72ace7	-0.014811731
11	0x3d8357bc	0.064132184
12	0x3c29a837	0.010355047
13	0xbb69d4e3	-0.003567987
14	0x3c5b81f5	0.013397683
15	0x3cbf64bc	0.023363464
16	0xbc30cec2	-0.010791482
17	0x3a3f9024	0.00073075504
18	0xbce42263	-0.027848428
19	0x3cc9661e	0.024584826
20	0x3c3a8a16	0.011385461
21	0x3d85e6b0	0.06538141
22	0x3d21d62c	0.03951089
23	0xbcdf73a0	-0.027276814
24	0x3c75affd	0.014995572
25	0x3c31b4f4	0.010846365
26	0x3c165202	0.009174826
27	0xba706b9d	-0.0009171309
28	0x3c6945cb	0.014237831
29	0xbc2af31d	-0.010433939
30	0xbd195dff	-0.037443157
31	0xbd32cc91	-0.04365212
32	0x3c124e39	0.008929783
33	0xbc469b87	-0.012122042
34	0x3d1cf7d4	0.038322285
35	0xbc428435	-0.011872341
36	0x3c29efd6	0.010372123
37	0x3bce6604	0.0062987823
38	0xbc4f99aa	-0.012670914
39	0xbba5fe57	-0.00506572
40	0x3d077e24	0.03307928
41	0x3cc03a81	0.023465397
42	0xbcb711fc	-0.022347443
43	0xbc88e0a9	-0.016708689
44	0xbcdd1086	-0.026985418
45	0x3bedbbd6	0.007255058
46	0xbc966ab4	-0.018361427
47	0x3d46e66d	0.048559595
48	0x3d2a40c3	0.041565668
49	0x3d174b23	0.03693689
50	0x3bcc5c69	0.006236602
51	0xbc0f2cf8	-0.008738749
52	0x3d1f4749	0.038886342
53	0xbdaa4863	-0.08314588
54	0xbb9c839c	-0.0047764312
55	0xbd354a87	-0.044260528
56	0xbd0ccc89	-0.034374747
57	0x3d201b52	0.039088555
58	0xbcd3c4e2	-0.025850717
59	0x3d015ab3	0.03158064
60	0xbd44f346	-0.048083566
61	0xbaee20d0	-0.0018167738
62	0x3c5294c8	0.012852855
63	0xbd0d3389	-0.034472976
64	0xbc537218	-0.01290562
65	0xbb1d635d	-0.0024015524
66	0xbbdbd954	-0.006709257
67	0xbbb29759	-0.005450171
68	0xbcd6b999	-0.026211547
69	0x3b7b3d8c	0.0038336245
70	0xbcd36b37	-0.02580796
71	0x3c671df1	0.01410626
72	0x3cc7280c	0.024311088
73	0x3c679ec5	0.014136975
74	0xbcafaaa2	-0.021443669
75	0x3d5e5af4	0.05428596
76	0x3c69d8a9	0.014272847
77	0x3c1876b0	0.009305641
78	0x3d07e670	0.033178747
79	0x3c00fc39	0.007872635
80	0xbc224f80	-0.00990665
81	0xbcb48e1b	-0.022040417
82	0x3ca91ed5	0.020644585
83	0xbb96f9ec	-0.0046074297
84	0x3b90c88c	0.0044184383
85	0x3d5acf23	0.053420197
86	0x3b100337	0.0021974572
87	0xbcdc8048	-0.026916638
88	0xbd2600b7	-0.040528025
89	0xbcb616e4	-0.022227712
90	0xbc37b9f1	-0.0112137655
91	0xbbe40a31	-0.0069592227
92	0x3d20dce5	0.03927316
93	0xbd6ba31b	-0.057528596
94	0xbc845d99	-0.016157912
95	0xbc1387dd	-0.00900456
96	0xbbfdf2ad	-0.0077498765
97	0x3c4c3c14	0.012465496
98	0x3c5f2060	0.013618559
99	0x3c818701	0.015811445
100	0x3c9730f6	0.018455964
101	0xbc58de33	-0.01323657
102	0x3c9e13be	0.019296523
103	0x3cd7a18c	0.026322149
104	0x3d799e13	0.060941767
105	0x3b85dfa1	0.0040854965
106	0x3ac818d4	0.0015266188
107	0xbbcbdab4	-0.00622114
108	0x3a05675c	0.0005088949
109	0xbb7280ff	-0.0037003157
110	0x3a842c56	0.0010084014
111	0x3c093375	0.008374085
112	0x3cc131ad	0.023583258
113	0x3c859bd9	0.016309666
114	0x3c9cdff5	0.01914976
115	0x3ccd8ac6	0.025090586
116	0x3c144ea9	0.009051957
117	0x3c76bfce	0.015060378
118	0x3d45483c	0.04816459
119	0xbc20b480	-0.00980866
120	0x3b9618e3	0.0045806034
121	0xbc2d7cb1	-0.010588811
122	0xbd139d69	-0.03603879
123	0xbc32bc31	-0.010909126
124	0xbc01fc82	-0.007933738
125	0x3bd132b3	0.0063842176
126	0x3bbdae22	0.0057885805
127	0xbc3575f4	-0.0110754855

model.4.weight f4 [128, 128]
0	0xbe5ed96c	-0.21762627
1	0x3dee8553	0.11646523
2	0x3e1d1750	0.15340924
3	0x3e1b6e4e	0.15178797
4	0x3d8ebe7a	0.06969924
5	0xbd725460	-0.059162498
6	0xbd417629	-0.047231827
7	0x3cc0f36e	0.023553576
8	0xbe0dba72	-0.13840654
9	0x3da7a925	0.08186559
10	0xbe606b6b	-0.21915977
11	0x3de0c37e	0.10974787
12	0xbe2fb2b0	-0.17158008
13	0x3e367bd1	0.1782067
14	0xbe1eeec6	-0.15520772
15	0xbe5abf58	-0.21362054
16	0x3e7d4a5f	0.24735402
17	0x3e221899	0.15829696
18	0xbe259bb2	-0.16172674
19	0x3d74d57f	0.05977392
20	0xbd499c67	-0.049221423
21	0x3dcd33e0	0.1001966
22	0xbcd802ea	-0.026368577
23	0xbe0e5649	-0.13900103
24	0xbdf97859	-0.121811576
25	0xbe3e695b	-0.18594877
26	0xbd9b486e	-0.07582174
27	0xbdec3171	-0.11532868
28	0x3d283daa	0.041074432
29	0x3ddd58a5	0.10807923
30	0x3e03a530	0.12855983
31	0xbe29c716	-0.16579852
32	0xbdb8eabc	-0.09029147
33	0xbe46dcf1	-0.1942022
34	0xbcad6a14	-0.021168746
35	0xbe2d3baa	-0.16917291
36	0x3df457c2	0.11930801
37	0x3dddeaaa	0.10835774
38	0xbdf14d49	-0.11782319
39	0x3e61715d	0.22015901
40	0xbdadd5d3	-0.08488049
41	0x3b1981ef	0.0023423394
42	0xbd35d07e	-0.044388287
43	0x3d6d1ea7	0.05789056
44	0xbe4605e0	-0.19338179
45	0x3de93cde	0.113885626
46	0x3daabf34	0.0833725
47	0x3df88e4f	0.12136518
48	0xbe215f51	-0.15759017
49	0xbd0a1095	-0.03370722
50	0x3c338f32	0.010959433
51	0xbe1604d1	-0.14650275
52	0x3c2f5db2	0.010703491
53	0xbe342a4f	-0.17594264
54	0x3d399287	0.045305755
55	0xbd746830	-0.059669673
56	0xbd766225	-0.06015219
57	0xbbb50f74	-0.005525524
58	0xbdf03b3d	-0.11730049
59	0x3cc7e7d4	0.024402536
60	0xbd6fbb29	-0.0585281
61	0xbe516d0c	-0.20451754
62	0x3deb87dc	0.115005225
63	0xbde92b2b	-0.11385187
64	0x3cc6040c	0.024171852
65	0x3d69ae11	0.05705077
66	0xbe7a23c6	-0.24427709
67	0x3c03ef1a	0.008052612
68	0xbd90c6b8	-0.070691526
69	0xbdd709f6	-0.10499947
70	0xbe180144	-0.14844233
71	0xbd63818a	-0.05554346
72	0x3dfd90b0	0.123811126
73	0x3d3cd834	0.046104625
74	0xbe1e7484	-0.15474135
75	0xbd0afea7	-0.03393426
76	0xbd4d48aa	-0.050118126
77	0x3ddc409f	0.10754513
78	0xbd883bcf	-0.066520326
79	0xbc2b9d2b	-0.0104744835
80	0xbe08d48f	-0.13362335
81	0x3dae79a2	0.08519293
82	0x3bc683d0	0.0060581937
83	0xbdfe22b0	-0.1240896
84	0xbd8523a4	-0.065009385
85	0xbe17bf2e	-0.14819023
86	0xbd4d12a5	-0.05006661
87	0xbd1b7b67	-0.037959483
88	0xbe2a9ce4	-0.16661412
89	0xbe28be39	-0.16478814
90	0xbe31ff24	-0.17382485
91	0xbd9a56b7	-0.07536071
92	0x3e106ac0	0.14103222
93	0x3d57aad4	0.05265315
94	0x3e131934	0.14365083
95	0x3caa665e	0.020800766
96	0xbd2325e7	-0.03983107
97	0xbe052720	-0.13003206
98	0xbe377941	-0.17917348
99	0xbe06c515	-0.13161118
100	0x3d89bf8c	0.06725988
101	0xbb3cf58d	-0.0028832883
102	0x3cfdce61	0.030982198
103	0x3e324518	0.1740917
104	0xbdfc46dd	-0.123182036
105	0xbdc0bf91	-0.094115384
106	0x3e37a0dc	0.17932457
107	0xbe2464f7	-0.1605414
108	0x3de814d9	0.113321014
109	0x3c040602	0.008058073
110	0x3daea6a6	0.085278794
111	0x3e12b346	0.143262
112	0x3e392e9b	0.18084185
113	0xbcf94122	-0.030426566
114	0x3e5ac91a	0.21365777
115	0xbe194c60	-0.14970541
116	0xbda91a5a	-0.08256979
117	0x3dde74f9	0.108621545
118	0x3bd5002f	0.006500266
119	0xbe25c4da	-0.16188374
120	0x3e026ff2	0.12738016
121	0x3d5652b1	0.052324954
122	0xbdd86b55	-0.10567347
123	0xbde6063a	-0.112316564
124	0xbe2737d6	-0.16329893
125	0x3e4199d7	0.18906341
126	0xbe6514ce	-0.22371218
127	0x3e427fa7	0.18994008
128	0x3d94e058	0.07269353
129	0xbda20846	-0.07911734
130	0x3e2f7e98	0.17138135
131	0xbd101cac	-0.035183594
132	0xbe09529f	-0.13410424
133	0x3c84313c	0.016136758
134	0x3d5c1bac	0.053737327
135	0xbe44aa05	-0.19205482
136	0xbd1d7f3c	-0.03845142
137	0xbdad2a4b	-0.08455332
138	0xba992529	-0.0011684048
139	0x3db1fc59	0.086907096
140	0xbdc2f37f	-0.095190994
141	0x3e2ee944	0.17081171
142	0xbd8d82fd	-0.0690975
143	0x3d07fc7c	0.033199772
144	0x3d52b4e4	0.051442042
145	0xbd0b7bb0	-0.034053504
146	0xbe54e016	-0.20788607
147	0xbdacb44f	-0.08432829
148	0xbd6881ab	-0.056764286
149	0x3b6f4b32	0.0036513326
150	0x3e3805e5	0.17970999
151	0xbe04ed06	-0.12981042
152	0x3e191775	0.14950354
153	0x3e1d753e	0.15376756
154	0x3d044cff	0.03229999
155	0x3e0d3421	0.13789417
156	0xbe169d28	-0.14708388
157	0x3e302834	0.17202836
158	0xbe2d31b3	-0.1691349
159	0xbcf25ef9	-0.029586302
160	0x3e290abb	0.16508
161	0x3d5ef204	0.054430023
162	0xbe0c6dfa	-0.13713828
163	0xbc5762e5	-0.013146137
164	0x3e3b90cb	0.18316953
165	0xbe556268	-0.2083832
166	0x3e4aaaeb	0.19791763
167	0xbda34580	-0.079722404
168	0x3e5ca234	0.2154625
169	0xbde6160b	-0.11234673
170	0xbdb6b846	-0.08921866
171	0xbe000793	-0.1250289
172	0x3dfb2bbd	0.12264202
173	0xbd59fb21	-0.05321801
174	0xbe35d039	-0.17755212
175	0x3d6bfe22	0.057615407
176	0x3d3c4918	0.045968145
177	0xbe5166ab	-0.20449321
178	0xbc357f34	-0.011077691
179	0xbe4aa23c	-0.1978845
180	0x3e519d59	0.2047018
181	0x3e3bc368	0.1833626
182	0xbe5091ee	-0.20368168
183	0x3ced07d3	0.028934395
184	0xbdfa90d7	-0.12234657
185	0xbd44841b	-0.047977548
186	0x3e287434	0.16450578
187	0x3df8d80b	0.12150582
188	0xbd326a9b	-0.0435587
189	0x3e373852	0.17892578
190	0x3d6e466a	0.05817262
191	0x3dcb2ab0	0.09920251
192	0xbe43a34d	-0.19105263
193	0x3d40814c	0.046998307
194	0x3e195f96	0.1497787
195	0x3dbda801	0.0926056
196	0xbd2daac2	-0.042399175
197	0xbe448ff1	-0.19195534
198	0x3dca6851	0.09883178
199	0xbde0dca5	-0.109795846
200	0x3d7b3c13	0.061336588
201	0xbdeebcef	-0.1165713
202	0xbe05119a	-0.12994996
203	0xbd1b37a3	-0.037894856
204	0x3c1fafb2	0.009746479
205	0xbe0bdb02	-0.13657764
206	0x3e43fa68	0.19138491
207	0xbd1721fd	-0.036897648
208	0x3e6c49eb	0.23075072
209	0x3e26ac07	0.1627656
210	0x3dc14a06	0.09437947
211	0x3bafd875	0.00536638
212	0x3dd2ac59	0.10286779
213	0xbe2a5a24	-0.16635948
214	0x3ddc1fcd	0.10748253
215	0x3d8fa9ac	0.07014784
216	0x3e368ea2	0.17827848
217	0xbd8993f2	-0.067176715
218	0x3d6f37d5	0.058402855
219	0xbaf6873e	-0.0018808616
220	0xbc7ef71e	-0.015561847
221	0xbcabc27f	-0.020966766
222	0x3e4985be	0.19679925
223	0xbd492221	-0.049104813
224	0x3dd680ff	0.10473823
225	0x3c6b96d9	0.014379227
226	0x3debed42	0.11519863
227	0x3df97774	0.12180987
228	0xbe5b9144	-0.21442133
229	0xbdbc1398	-0.09183425
230	0xbbae669c	-0.0053222906
231	0x3d2fdf5d	0.042937625
232	0x3cf60fd7	0.03003685
233	0xbd77801d	-0.060424913
234	0x3da1dc7d	0.07903383
235	0x3e0c5eff	0.13708113
236	0xbdc066aa	-0.093945816
237	0x3da19129	0.07889015
238	0x3e1fd227	0.1560751
239	0xbdb47d2d	-0.08812938
240	0xbe4d58cb	-0.20053403
241	0xbe1d0a33	-0.15335922
242	0x3dcddae8	0.10051519
243	0x3e5c2454	0.21498233
244	0xbe439266	-0.19098815
245	0x3dd06b19	0.10176677
246	0x3e346ea4	0.17620331
247	0x3d2552d0	0.04036218
248	0x3d807c95	0.06273762
249	0xbe063c56	-0.13108954
250	0x3d26cd01	0.04072285
251	0x3c28ee95	0.010310789
252	0x3d11d3e8	0.03560248
253	0xbe4942d7	-0.19654404
254	0xbd7cde43	-0.061735403
255	0x3d195f19	0.037444208

model.4.bias f4 [128]
0	0x3c4b39a8	0.012403883
1	0x3a8f6dee	0.0010942796
2	0xbc1f382a	-0.00971798
3	0x3bf416b2	0.0074489946
4	0xbbe35cf2	-0.00693857
5	0xbb985db0	-0.0046498403
6	0x3bd5a605	0.006520035
7	0xbc4b6687	-0.012414581
8	0x3c02c243	0.007980886
9	0xba307cbb	-0.00067324535
10	0xbc77f082	-0.015133025
11	0xbcda9f58	-0.02668731
12	0x3b2d96af	0.002648752
13	0xbb5403b3	-0.0032350838
14	0xbb043f9f	-0.0020179523
15	0x3be25658	0.0069072656
16	0x3c8e1db7	0.017348154
17	0x3ae42a13	0.0017407559
18	0xbb80a0a5	-0.0039254003
19	0xbc4fd1cd	-0.012684298
20	0xbbd13811	-0.0063848575
21	0x3b1dfc12	0.0024106544
22	0xbc216c89	-0.009852537
23	0xbc5784ad	-0.013154191
24	0xbc3a8c63	-0.01138601
25	0xbb97c45f	-0.0046315636
26	0x3bcdeb70	0.00628417
27	0xbcc3e824	-0.023914404
28	0xbbecacac	-0.0072227325
29	0x3bf5067f	0.007477581
30	0xbb903523	-0.0044008656
31	0x3c333a14	0.01093914
32	0xbc06a494	-0.008217949
33	0xbba02007	-0.0048866305
34	0xbc081db2	-0.008307861
35	0xbba835f9	-0.005133387
36	0x3c07aadb	0.008280481
37	0xba7d49d3	-0.0009662185
38	0x3c42b6da	0.0118844155
39	0x3c0e5359	0.008686864
40	0xbc7fffc9	-0.015624949
41	0xbc2b177d	-0.010442612
42	0x3bf88290	0.0075839236
43	0x3c809b95	0.015699187
44	0x3bdf3542	0.0068117687
45	0xbb0835ef	-0.00207841
46	0xbc2a6d96	-0.010402104
47	0xbc35b1b5	-0.011089732
48	0x3c34c30b	0.01103283
49	0x3af67edc	0.0018806118
50	0xbc926ffc	-0.017875664
51	0x3be6d76f	0.0070447247
52	0xbc40eeb0	-0.011775658
53	0x3b8b9098	0.0042591803
54	0x3c3e7016	0.011623403
55	0x3ba994f9	0.0051752296
56	0xbb30c8e7	-0.0026975216
57	0x3c10253d	0.008797941
58	0xbb711fc4	-0.0036792615
59	0xbb3d9c1d	-0.0028932162
60	0xbc4c3320	-0.012463361
61	0xbb68b2cc	-0.0035506962
62	0x3b0f79b6	0.0021892614
63	0xbc1a0b74	-0.009402145
64	0x3b611797	0.0034346336
65	0xbb8db9bf	-0.004325121
66	0x3be9fbce	0.007140613
67	0x3c4f1e2f	0.012641474
68	0xbbdc49fd	-0.0067226873
69	0xbbaa1b32	-0.00519123
70	0x3c2dcb94	0.010607619
71	0x3bdd647b	0.006756363
72	0x3b4c986f	0.0031218787
73	0x3af9d7e5	0.0019061534
74	0xbc12e957	-0.008966765
75	0x3c281e03	0.010261062
76	0xbacedf78	-0.0015783152
77	0xbba917ec	-0.0051603224
78	0xbc3593c3	-0.011082592
79	0x3c2e2cbd	0.010630784
80	0xbbff0a82	-0.007783235
81	0xbc80f985	-0.01574398
82	0x3b26d285	0.002545507
83	0x3c15f9f9	0.009153836
84	0xbc309ccd	-0.010779572
85	0xbbcbc8f6	-0.006219025
86	0x3c04efea	0.008113841
87	0x39dd2d61	0.00042186215
88	0x3c7c213f	0.015388786
89	0xbba8232f	-0.0051311473
90	0x3c929776	0.017894488
91	0x3ba16647	0.0049255225
92	0x3c9b5fc6	0.018966567
93	0xbc576ec4	-0.013148967
94	0xbc9f62cf	-0.019456295
95	0xbc1367f4	-0.008996952
96	0xbcadf01a	-0.021232653
97	0xbbefbfd5	-0.0073165693
98	0xbc407178	-0.011745803
99	0xbc3bfde7	-0.011474109
100	0x3c2f883b	0.010713632
101	0xbb8d2a2f	-0.004308007
102	0xba8a0a5a	-0.001053165
103	0xbcf50b4d	-0.029912615
104	0xba75384f	-0.0009354399
105	0x3bf16742	0.0073670456
106	0x3c3757a8	0.0111903325
107	0x3c004437	0.007828764
108	0xbbe8de06	-0.0071065454
109	0x3b31cb49	0.0027129224
110	0xba2b6875	-0.00065386976
111	0x3b22dfe2	0.0024852683
112	0x3ca9dffc	0.020736687
113	0x3c56adf4	0.013102997
114	0x3b8219fe	0.0039703837
115	0xbb82bbe3	-0.003989683
116	0xbce35599	-0.027750777
117	0xbb094215	-0.002094393
118	0x3c12a263	0.008949849
119	0x3c4111c4	0.011784021
120	0xb99e7c15	-0.00030228557
121	0x3b2ac928	0.002605984
122	0xbc81e76c	-0.01585742
123	0xbc266419	-0.010155701
124	0x3bb15918	0.005412232
125	0x3aacd763	0.0013186749
126	0xbbd8611c	-0.006603373
127	0x3b8715a3	0.0041224523

model.0.weight f4 [128, 1]
0	0x3fb88f34	1.4418702
1	0xbfd78fd2	-1.6840765
2	0xbfb045c2	-1.3771288
3	0x3fb64e05	1.424256
4	0x3f65c480	0.8975296
5	0x3f8ed635	1.1159121
6	0xbfa36e03	-1.2767948
7	0x3fefb5d2	1.8727362
8	0xbf1072f8	-0.5642543
9	0x3f0fb47c	0.5613477
10	0x3ccb6dbd	0.0248326
11	0xbfa2f986	-1.2732399
12	0x3fe6294c	1.7981353
13	0xbda649a8	-0.081195176
14	0x3f7a7839	0.97839695
15	0x3f762c9e	0.9616183
16	0xbf293cfc	-0.6610868
17	0xbdd617e2	-0.10453774
18	0x3fba84be	1.457176
19	0xbfa22944	-1.2668843
20	0xbfeb884b	-1.8400968
21	0x3fee23b5	1.8604647
22	0x3edca91a	0.43097764
23	0x3fdaa475	1.7081438
24	0xbffd8816	-1.9807155
25	0xbe51d92c	-0.20493001
26	0xc00c6c6a	-2.194117
27	0x3f0a5f07	0.5405125
28	0xbf0622c4	-0.523968
29	0x3f8e01db	1.1094316
30	0x3fecb706	1.8493354
31	0xbfc4b874	-1.5368791
32	0xbf294975	-0.6612771
33	0x3fdec2c4	1.7403188
34	0xbfe832ba	-1.814048
35	0xbefa2657	-0.48857376
36	0x3e1fa0ee	0.15588734
37	0xc010d34f	-2.2628973
38	0x3fd2d65b	1.6471666
39	0x3f64657d	0.8921736
40	0xbf093a98	-0.5360503
41	0x3f6254b5	0.884105
42	0x3e4a8466	0.19777068
43	0xbf047af7	-0.5175013
44	0xbfa2766e	-1.2692392
45	0x3fad56ef	1.3542155
46	0xc01798d8	-2.3687038
47	0xbf202253	-0.62552375
48	0xbf0d8971	-0.55287844
49	0xbf2d206b	-0.6762759
50	0xbfd7eff6	-1.6870105
51	0x3ef45868	0.477237
52	0xbfdc8e11	-1.7230855
53	0xc013aa4d	-2.3072693
54	0xbf71e104	-0.9448397
55	0x3f6d52ff	0.92704767
56	0x3fd54e0a	1.6664441
57	0xbf704ee7	-0.93870395
58	0xbf846a71	-1.0344983
59	0xc004dccb	-2.0759761
60	0x3f922d7c	1.1420131
61	0xbed6ca27	-0.41951105
62	0xc0053391	-2.0812724
63	0xbf39253b	-0.72322434
64	0xbfcf761a	-1.6207917
65	0x3eef98ba	0.4679621
66	0x3ec07ae3	0.37593755
67	0xbf5a6e7d	-0.8532484
68	0x401d1072	2.4541287
69	0x3fe06160	1.7529716
70	0xc01c1fe6	-2.439447
71	0xbf15f971	-0.5858374
72	0x3f9516e5	1.1647612
73	0xbf07fa46	-0.5311626
74	0xbf8f3087	-1.1186684
75	0xbfe5ecb2	-1.7962859
76	0x3e8a620f	0.27027938
77	0xbf9bc886	-1.217057
78	0xc0198066	-2.3984618
79	0xbff8eb9d	-1.9446903
80	0xbfde006a	-1.7343876
81	0xbfc7e96c	-1.561811
82	0xbf1ac569	-0.60457474
83	0xbfd34903	-1.6506656
84	0x3f60b67e	0.8777846
85	0x3ec32a8e	0.38118404
86	0x400d69ad	2.209575
87	0x3df26c40	0.11837053
88	0x3f4d1869	0.8011537
89	0x3f253e4f	0.645482
90	0x3f80d0fe	1.0063779
91	0xc0098b93	-2.149144
92	0x40169808	2.3530293
93	0x3f929df1	1.145445
94	0xbdb3475f	-0.08753847
95	0xbdc0189f	-0.09379696
96	0xbfede151	-1.8584386
97	0xbe0a84f3	-0.13527279
98	0xbfbf66b3	-1.4953216
99	0x3f9e166e	1.2350595
100	0xbebb65dc	-0.3660115
101	0xbfd5fddf	-1.67181
102	0xbf8296c1	-1.0202256
103	0xbfb85ed3	-1.4403938
104	0xc013d924	-2.3101282
105	0xbf33619f	-0.7007083
106	0x40050012	2.0781293
107	0xbfc0e915	-1.5071131
108	0xbf9877bd	-1.1911541
109	0xbfb79972	-1.4343703
110	0x3fdaab94	1.7083611
111	0xbe8f8460	-0.28030682
112	0xbfa0bc24	-1.2557416
113	0x3ecf01fb	0.40431198
114	0x3fdd4673	1.7287124
115	0x3fcfa73c	1.6222911
116	0xbffd5668	-1.9791994
117	0xbff89d3e	-1.9422987
118	0xbdf8e4ad	-0.121529914
119	0xbf665c7e	-0.8998488
120	0x3fde05d0	1.7345524
121	0xbf201baf	-0.6254224
122	0x3fa2c6b2	1.2716887
123	0x3eec2baf	0.46127078
124	0x3dc8d722	0.09806658
125	0xbfbedc9a	-1.4911072
126	0xbc5aaa44	-0.013346259
127	0xbfc3f2ce	-1.5308473

model.0.bias f4 [128]
0	0x3e4ae9f0	0.19815803
1	0xbdab3ad2	-0.083608285
2	0x3b2f0070	0.0026703142
3	0xbedcc1dd	-0.43116656
4	0xbe64bbaf	-0.2233722
5	0x3d3ed062	0.046585448
6	0xbedea268	-0.4348328
7	0x3de2a15a	0.110659316
8	0xbd15146b	-0.036396425
9	0x3cea5d41	0.02860892
10	0xbdf38035	-0.11889688
11	0xbe2bac3c	-0.16764921
12	0xbe217e46	-0.15770826
13	0x3e7fb080	0.24969673
14	0xbd5548a3	-0.052071225
15	0xbe032a95	-0.12809213
16	0x3d6c7695	0.057730276
17	0x3eace5c2	0.3376904
18	0x3eaad7c0	0.3336773
19	0xbef2904a	-0.4737571
20	0xbd439271	-0.04774708
21	0xbc3bd7d0	-0.011465028
22	0x3d70ee6e	0.058821134
23	0x3ebfce38	0.3746202
24	0x3ebd2c17	0.369477
25	0x3de19d96	0.11016385
26	0x3d37f77b	0.04491375
27	0x3ca06c23	0.019582814
28	0xbcc9b240	-0.024621129
29	0xbe5ae529	-0.2137648
30	0xbdcd6d6c	-0.10030636
31	0xbed53552	-0.41642243
32	0xbd63433d	-0.055484045
33	0xbe08541d	-0.13313337
34	0x3e8f023a	0.27931386
35	0xbcb3fd8c	-0.021971487
36	0xbcc0efb5	-0.023551801
37	0xbd7b13bc	-0.061298117
38	0xbe9d57ba	-0.30730993
39	0x3d980dd4	0.074245125
40	0xbdbe63f6	-0.0929641
41	0xbdfd0fa9	-0.123565026
42	0x3dfda9cb	0.12385901
43	0x3d89fa37	0.06737178
44	0xbeb63d8a	-0.35593826
45	0x3e87a26a	0.264911
46	0xbf04a7ef	-0.51818746
47	0x3d4c9269	0.049944315
48	0xbde6ee49	-0.11275918
49	0x3cebdd37	0.028792007
50	0xbe34d759	-0.17660274
51	0xbcabb6ec	-0.020961247
52	0xbdd15bd0	-0.1022259
53	0x3dc0a89e	0.09407161
54	0x3e64a3d2	0.22328117
55	0x3dfa5a45	0.12224249
56	0x3e0b740c	0.13618487
57	0x3e26b645	0.16280468
58	0xbe78b116	-0.24286303
59	0xbec65966	-0.3874008
60	0xbe91b26b	-0.28456435
61	0xbdaad0de	-0.083406195
62	0xbe0bd654	-0.13655978
63	0x3d290fcc	0.04127483
64	0xbe1ee5eb	-0.15517394
65	0xbdce3aa9	-0.10069782
66	0x3e04322d	0.12909766
67	0x3ca70de2	0.020392362
68	0xbf47a427	-0.7798485
69	0x3e3ce6eb	0.18447463
70	0xbf591884	-0.8480303
71	0x3cba945c	0.022775821
72	0xbeff6450	-0.4988122
73	0xbcae4bf0	-0.021276444
74	0x3dcc3a22	0.099720255
75	0x3de4b9a5	0.111682214
76	0x3ccf9704	0.025340565
77	0xbd617bdb	-0.05504976
78	0x3e6e0114	0.23242599
79	0x3d99591c	0.074876994
80	0xbd8f65c8	-0.07001835
81	0xbc2030bf	-0.009777247
82	0x3d8c1a86	0.068409964
83	0x3ec687fd	0.38775626
84	0x3e52e0ae	0.20593521
85	0xbc309d71	-0.010779724
86	0x3d80fc2e	0.062980995
87	0xbdd04461	-0.10169292
88	0x3d5ec17e	0.054383747
89	0x3c783eee	0.015151722
90	0x3c9d2153	0.01918093
91	0xbe019a2e	-0.12656471
92	0xbf45dcfc	-0.7729032
93	0xbe41d01e	-0.18927047
94	0x3dd2b2df	0.10288023
95	0x3e5638a3	0.20920043
96	0xbdb12043	-0.086487316
97	0xbdf8f5c8	-0.12156254
98	0xbeeda0e7	-0.4641182
99	0xbe475004	-0.19464117
100	0x3ddd820c	0.1081582
101	0xbe92cc1c	-0.28671348
102	0xbd83d37a	-0.0643682
103	0x3ef0c10b	0.4702228
104	0xbef9a776	-0.48760575
105	0x3daef35d	0.085425116
106	0x3d9aae0d	0.07552729
107	0xbe581b50	-0.21104169
108	0x3db9da6f	0.09074866
109	0x3e8988a4	0.2686206
110	0x3e53a949	0.20670046
111	0x3d2524bb	0.040318232
112	0x3e9eb846	0.30999964
113	0xbc6e69b7	-0.014551572
114	0x3e0ae02c	0.13562077
115	0xbe522c4f	-0.20524715
116	0xbdc29114	-0.09500328
117	0xbd5516e2	-0.052023776
118	0xbaef5c3b	-0.001826174
119	0xbc31ceaa	-0.010852495
120	0x3e1b6c24	0.15177971
121	0xbd2108a8	-0.039314896
122	0xbe592dfd	-0.2120895
123	0xbcf47379	-0.029840218
124	0x3e18b940	0.14914417
125	0x3ed9ee49	0.4256461
126	0x3e608f3b	0.21929638
127	0xbdb65957	-0.08903759

model.2.weight f4 [128, 128]
0	0x3e4de69f	0.20107506
1	0x3dfa1363	0.12210729
2	0xbe4d2d75	-0.20036872
3	0xbe2813ae	-0.16413757
4	0x3e42b02a	0.19012514
5	0xbe4ff904	-0.20309836
6	0xbce3c4c2	-0.027803782
7	0x3e006299	0.12537612
8	0xbc1975db	-0.009366478
9	0xbd92b904	-0.07164195
10	0xbdc8d27c	-0.09805772
11	0x3e108e21	0.14116718
12	0xbdd3e714	-0.10346809
13	0xbcfead6a	-0.03108855
14	0xbdeede4a	-0.11663492
15	0x3d85e801	0.06538392
16	0x3e38b8b0	0.18039203
17	0xbe0963e3	-0.1341701
18	0x3e2e185e	0.17001483
19	0xbdffcd9d	-0.124903895
20	0xbe54d5e5	-0.2078472
21	0xbdfb5f3d	-0.12274025
22	0xbdbe7920	-0.093004465
23	0x3c88f9f8	0.016720757
24	0x3d9ada0c	0.075611204
25	0xbdaef236	-0.08542292
26	0x3d7aa472	0.061191984
27	0x3e2abcd7	0.16673599
28	0x3e4946d6	0.19655928
29	0xbde2236d	-0.11041913
30	0xbdbfffd5	-0.09374968
31	0xbe0b7fb7	-0.13622938
32	0x3ccfbbf5	0.02535818
33	0x3e4939ca	0.19650951
34	0x3d366f2d	0.04453962
35	0x3c9497fc	0.018138878
36	0x3d41a52e	0.04727667
37	0xbe132571	-0.14369752
38	0xbe2d9b45	-0.16953762
39	0x3dfe1eac	0.12408194
40	0x3e00c8dd	0.12576623
41	0x3e0c028f	0.13672851
42	0xbe33edc0	-0.17571163
43	0xbdd3672a	-0.10322411
44	0x3da30b3e	0.07961129
45	0xbdff0b4b	-0.12453326
46	0x3d815be5	0.063163556
47	0xbd5e932d	-0.054339577
48	0x3d486ace	0.048929982
49	0xbdd113e2	-0.102088705
50	0xbd94dbd1	-0.07268489
51	0x3b1a6bba	0.0023562745
52	0xbe350e74	-0.17681295
53	0xbe03ea64	-0.12882382
54	0xbdd26a19	-0.10274143
55	0x3dfe3e2a	0.124142006
56	0x3cf82829	0.030292587
57	0xbccaa403	-0.02473641
58	0x3a5e8eae	0.0008489889
59	0xbda1a47c	-0.07892701
60	0xbe533d96	-0.20628962
61	0xbca5db34	-0.020246126
62	0xbe4e27aa	-0.20132318
63	0x3e4a92c1	0.19782545
64	0xbe0f1283	-0.13971905
65	0x3e38f7a2	0.18063214
66	0xbe569ed1	-0.20959021
67	0xbdf1acdd	-0.11800549
68	0xbe4152f6	-0.18879303
69	0x3e2a7d70	0.16649413
70	0x3d203242	0.03911043
71	0x3d95b02d	0.073089935
72	0xbe6d3be9	-0.23167385
73	0xbe082939	-0.13296975
74	0xbe289c8c	-0.16465968
75	0x3d574b5c	0.052562103
76	0x3dd6c2df	0.104863875
77	0x3c9f631a	0.019456435
78	0xbe312d00	-0.17302322
79	0x3e2a354e	0.16621897
80	0xbe47bf58	-0.19506586
81	0x3e2d821d	0.16944166
82	0x3c88e04f	0.016708521
83	0x3e15fbbf	0.14646815
84	0x3d9bdcef	0.07610499
85	0xbe4a8eb8	-0.19781005
86	0x3dd20847	0.10255485
87	0xbdf086fe	-0.11744498
88	0xbe089f6f	-0.13342069
89	0xbe1a55bd	-0.15071769
90	0xbdd0f20e	-0.10202418
91	0x3e144a02	0.14481357
92	0x3d149ddc	0.03628336
93	0xbe10e7cc	-0.14150923
94	0x3df118bf	0.11772298
95	0x3e18f5f7	0.14937578
96	0x3cb11ea4	0.021621056
97	0xbd9ab292	-0.07553591
98	0x3dcfbd1e	0.10143493
99	0xbcb4b4bb	-0.022058835
100	0xbdf49a8d	-0.11943541
101	0x3d94a824	0.07258633
102	0x3d1d66b8	0.03842804
103	0x3e3611b4	0.1778019
104	0xbd82f127	-0.063936524
105	0x3e018cbf	0.12651347
106	0x3e15ee02	0.14641574
107	0x3caf1a77	0.021374924
108	0xbd9443ea	-0.07239516
109	0xbcbe69cc	-0.023243807
110	0x3d9b875d	0.07594178
111	0x3de3fd92	0.11132349
112	0x3e6de7d9	0.23232974
113	0x3e329c62	0.17442468
114	0xbe003075	-0.12518485
115	0xbe0b4b5c	-0.13602966
116	0xbdc4c37b	-0.096075974
117	0x3e3b6ac8	0.18302453
118	0xbd726839	-0.059181426
119	0x3bc8b98f	0.006125636
120	0xbd7f7c37	-0.06237432
121	0xbdd5ad6d	-0.10433469
122	0xbda10d8d	-0.07863913
123	0x3e385d2e	0.18004295
124	0x3e07faa1	0.13279201
125	0x3e355420	0.17707872
126	0xbddc6b26	-0.107626244
127	0xbe04831f	-0.12940644
128	0x3e418402	0.18898013
129	0x3e1ebaf9	0.15501012
130	0xbd248e38	-0.040174693
131	0xbe5476cd	-0.20748444
132	0xbdb2966d	-0.08720098
133	0x3d5c3fb5	0.053771693
134	0x3e3135f3	0.17305736
135	0xbba66530	-0.0050779805
136	0x3ca7d8b4	0.020489074
137	0x3b2e39f0	0.0026584826
138	0xbe511c3d	-0.20420928
139	0xbe3ae490	-0.18251252
140	0xbadf5ea7	-0.0017041758
141	0xbd577dcf	-0.052610215
142	0x3d2e2ebf	0.04252505
143	0x3e60dad4	0.21958476
144	0xbe4fb953	-0.2028554
145	0x3db8d901	0.09025765
146	0x3da05ea1	0.07830549
147	0x3e20dca3	0.15709166
148	0x3d339015	0.04383858
149	0xbe304ca1	-0.17216732
150	0x3e496347	0.19666778
151	0x3d57ab71	0.052653734
152	0xbe35cbf5	-0.17753585
153	0x3dd2a7f7	0.10285943
154	0x3dc0e5b3	0.09418812
155	0xbd3bb667	-0.04582825
156	0x3d610557	0.054936733
157	0x3e1aa335	0.15101321
158	0xbe163732	-0.14669493
159	0xbe154698	-0.1457771
160	0x3e4d4b36	0.20048222
161	0x3d12a366	0.03580036
162	0x3d5e5d6c	0.054288313
163	0x3e00f9f8	0.12595356
164	0xbd41cdbb	-0.04731534
165	0xbe4f66b5	-0.20254023
166	0x3e1ac51e	0.15114257
167	0x3d8b1177	0.067904405
168	0xbe526ef5	-0.20550139
169	0xbe304059	-0.17212047
170	0x3e45f821	0.19332935
171	0xbd99efb2	-0.075164214
172	0xbd9c15bd	-0.07621334
173	0x3da25d3b	0.079279386
174	0x3d94e5e1	0.072704084
175	0xbdb1c341	-0.0867982
176	0x3d88d51b	0.06681272
177	0x3d1044e1	0.035221938
178	0x3e2b7c21	0.1674657
179	0xbe124430	-0.14283824
180	0xbdf0a098	-0.11749381
181	0x3dff3abd	0.12462375
182	0x3cdec3bf	0.027192948
183	0xbd187127	-0.037217285
184	0xbda4d6a2	-0.080487505
185	0xbe47d7e6	-0.19515952
186	0x3e358092	0.17724827
187	0x3ddd8490	0.108163
188	0xbe170aed	-0.14750262
189	0xbe051e7c	-0.1299991
190	0x3e19eaea	0.15031019
191	0xbe48aded	-0.19597597
192	0x3e3f501b	0.18682902
193	0x3cd3e8b2	0.025867794
194	0x3dd2129f	0.10257458
195	0xbcc95453	-0.024576342
196	0x3da7a0fd	0.08185003
197	0xbd42ec6a	-0.047588743
198	0xbe4ebe7d	-0.20189853
199	0x3e409461	0.18806602
200	0x3e047bf1	0.12937905
201	0x3e47b34a	0.19501987
202	0x3c2c42bf	0.01051396
203	0x3e4d1ba1	0.20030071
204	0x3e23ec1e	0.1600804
205	0xbd916e65	-0.07101134
206	0x3de7d7d0	0.1132046
207	0x3e2cd147	0.16876708
208	0x3c7aa76b	0.015298705
209	0x3e3ab725	0.18233927
210	0x3d7961e8	0.060884386
211	0x3e14b3e6	0.14521751
212	0xbe105612	-0.14095333
213	0x3d9027e6	0.0703886
214	0x3dc3cb1f	0.09560227
215	0x3d072bd7	0.033000793
216	0x3de0a2aa	0.10968526
217	0x3e56747a	0.2094287
218	0x3de4b6a6	0.1116765
219	0xbe4db023	-0.20086722
220	0xbd367962	-0.044549353
221	0x3e366122	0.1781049
222	0xbe295d60	-0.16539526
223	0x3de32912	0.11091818
224	0x3d116268	0.03549424
225	0x396d2da0	0.00022619078
226	0xbd0d6edb	-0.03452955
227	0x3b74fa89	0.0037380776
228	0xbc8ff321	-0.017571988
229	0xbd23df2a	-0.040007748
230	0x3e471003	0.19439702
231	0x3dd2f102	0.10299875
232	0xbe09e550	-0.13466382
233	0x3dff6ab4	0.12471524
234	0x3d59b266	0.05314865
235	0xbd78438b	-0.06061129
236	0xbe13cbe4	-0.14433247
237	0x3e52a5f3	0.20571117
238	0xbd68eb43	-0.056864988
239	0xbe418836	-0.18899617
240	0xbd8993c3	-0.067176364
241	0x3db006d2	0.08595051
242	0x3d67482c	0.056465313
243	0x3c8acedb	0.01694434
244	0x3e5f6ec1	0.21819593
245	0xbe1e7392	-0.15473774
246	0x3e038d2a	0.12846819
247	0xbe1315b7	-0.14363752
248	0x3e42ee36	0.19036183
249	0x3da5fb12	0.081045285
250	0x3e3030e4	0.1720615
251	0x3d5a5105	0.053299922
252	0x3d3c2404	0.045932785
253	0x3babc866	0.005242395
254	0xbcb1b0a8	-0.021690682
255	0x3e409c7e	0.18809697

model.2.bias f4 [128]
0	0xbe9e1c88	-0.30881143
1	0x3dab7248	0.08371407
2	0x3dbbf9e9	0.09178526
3	0xbdc25a15	-0.09489838
4	0x3df807fc	0.12110898
5	0x3d7b0746	0.061286233
6	0xbd40bd41	-0.047055487
7	0xbcc13698	-0.023585603
8	0x3db6dbfc	0.089286774
9	0x3d764126	0.060120724
10	0x3dddd514	0.10831657
11	0x3e21bd1e	0.15794799
12	0xbcd7c6f1	-0.02633998
13	0x3e4aec9f	0.19816826
14	0xbcf369d5	-0.02971355
15	0xbc20202d	-0.009773296
16	0xbd423ded	-0.04742234
17	0x3b04454c	0.0020182906
18	0xbd1e4679	-0.038641427
19	0xbd75d068	-0.060013205
20	0xbe5e2b55	-0.21696217
21	0x3d589e65	0.05288543
22	0x3d8e71e3	0.06955316
23	0xbe32e339	-0.17469491
24	0x3e201aae	0.15635177
25	0x3cae4367	0.021272374
26	0xbbcdc31d	-0.006279363
27	0x3d26161b	0.040548425
28	0xbcb496b2	-0.022044513
29	0x3cd6abee	0.02620503
30	0x3d10fb1b	0.035395723
31	0xbe21edcc	-0.15813369
32	0x3e33d83a	0.17562953
33	0x3e09cff1	0.1345823
34	0x3d9c9705	0.07645992
35	0x3e02da4f	0.1277859
36	0x3d202da3	0.039106023
37	0x3ad4c42a	0.0016232778
38	0xbda24dfc	-0.079250306
39	0x3d71cfad	0.059035946
40	0x3e0caabd	0.13737006
41	0x3d1baa95	0.038004477
42	0xbe1761ba	-0.14783373
43	0xbc583917	-0.013197205
44	0x3dad5548	0.08463532
45	0x3e1b8585	0.15187652
46	0x3dd5c8bd	0.104386784
47	0x3db7e0f3	0.089784525
48	0xbdd5170a	-0.10404785
49	0x3e25f544	0.16206843
50	0x3d8fb9f0	0.07017887
51	0xbd954aa5	-0.07289628
52	0xbc4a2e35	-0.012340118
53	0xbcaece6c	-0.021338664
54	0xbd9065ed	-0.07050691
55	0xbc0218b9	-0.007940465
56	0xbcdff529	-0.027338581
57	0x3e22da59	0.15903606
58	0xbba104a7	-0.0049138847
59	0x3dd9fbf1	0.10643757
60	0x3e1caa28	0.15299284
61	0x3dfbf1b4	0.123019606
62	0xbce00d23	-0.027350014
63	0x3e91344c	0.28360212
64	0xbe675f38	-0.22594917
65	0x3dd7ab22	0.10530688
66	0xbd8b34fb	-0.067972146
67	0x3d3936c7	0.045218255
68	0x3dd85759	0.10563535
69	0x3e2123ee	0.15736362
70	0x3b8732f4	0.004125947
71	0x3d41aafe	0.04728221
72	0xbd2c827f	-0.04211664
73	0xbcb06ba4	-0.021535702
74	0x3d243ca8	0.04009691
75	0xbdbf6575	-0.09345523
76	0xbd9b9f6f	-0.07598769
77	0xbd5a4340	-0.05328679
78	0x3dd94084	0.106080085
79	0xbe155971	-0.145849
80	0x3c83dcbf	0.01609647
81	0x3e2c1493	0.16804723
82	0xbe3f5c07	-0.1868745
83	0xbdf98c04	-0.12184909
84	0xbda38ec1	-0.079862125
85	0x3dbb2260	0.09137416
86	0x3e049e05	0.12950905
87	0x3de50ff6	0.11184685
88	0x3cbea19a	0.023270417
89	0x3e0fb779	0.14034833
90	0xbe0e210d	-0.13879795
91	0xbd16f661	-0.03685606
92	0xbc251620	-0.010076076
93	0x3e371c11	0.178818
94	0x3db3af43	0.08773663
95	0x3e771ee9	0.24132885
96	0x3d57b2c6	0.052660726
97	0x3accf483	0.0015636835
98	0x3d5d9727	0.05409923
99	0x3e4dbcc2	0.20091537
100	0xbdf98b28	-0.12184745
101	0x3cafee93	0.021476066
102	0xbcfc8ef1	-0.030829879
103	0x3d85c794	0.06532207
104	0x3df573e1	0.11984993
105	0xbe374737	-0.1789826
106	0xbddc2891	-0.10749925
107	0x3dc2939a	0.09500809
108	0x3c9eab0b	0.019368669
109	0x3de306f2	0.11085309
110	0xbcc06cce	-0.023489382
111	0xbdacc7aa	-0.084365204
112	0xbe69d7d8	-0.22836244
113	0xbd3482a0	-0.044069886
114	0xbdcf5d94	-0.101252705
115	0x3e14d356	0.14533743
116	0x3c2de58d	0.010613811
117	0x3cfc02e6	0.0307631
118	0xbbe620e9	-0.007022966
119	0xbd2444fb	-0.040104847
120	0xb7916361	-1.7331624e-05
121	0x3e315c48	0.17320359
122	0xbc4ea157	-0.012611709
123	0xbc738639	-0.014863544
124	0x3ba0fd3d	0.004913001
125	0x3e05f250	0.13080716
126	0x3c3eda71	0.01164876
127	0xba8ca011	-0.0010728856
